CNN/python/project/lenet5_weights.pth (torch, 250586 bytes, 10 tensors)

conv1.weight f4 [6, 1, 5, 5]
0	0x3e74dbef	0.23912023
1	0xbdb32365	-0.08746985
2	0xbe5a2e80	-0.21306801
3	0xbdf37695	-0.11887852
4	0x3b8cb5f0	0.0042941496
5	0x3e060b07	0.13090144
6	0x3e662b77	0.22477518
7	0x3db803e3	0.08985116
8	0x3e640415	0.22267182
9	0x3e57b238	0.21064079
10	0x3e2d24e5	0.16908605
11	0x3e8bb9da	0.2729023
12	0x3e8393c6	0.2569868
13	0x3e86a852	0.26300293
14	0x3d9d485d	0.07679818
15	0x3ce91554	0.028452553
16	0x3c5505c6	0.013001865
17	0x3e296361	0.16541816
18	0x3e858e6d	0.26085225
19	0x3e333766	0.17501602
20	0x3d066393	0.032809805
21	0xbe925abf	-0.2858486
22	0xbea9f698	-0.3319595
23	0xbebca7c3	-0.36846742
24	0xbcf841bf	-0.030304788
25	0x3e9bc841	0.3042622
26	0x3db54558	0.08851117
27	0x3dc24684	0.09486106
28	0x3e425666	0.18978271
29	0x3e233244	0.15937144
30	0xbdb668da	-0.089067176
31	0x3d1c6095	0.038178045
32	0xbe404036	-0.18774495
33	0xbeb4b2a2	-0.35292536
34	0xbeb24015	-0.34814516
35	0xbe71166a	-0.23543707
36	0xbed53514	-0.41642058
37	0xbede86ab	-0.43462119
38	0xbe854efa	-0.26036817
39	0xbea1f1c9	-0.3162978
40	0xbeae66f7	-0.3406293
41	0xbdb16378	-0.0866155
42	0xbdfba092	-0.12286486
43	0xbdd3df30	-0.10345304
44	0x3e1f15ad	0.15535612
45	0xbeaafc1f	-0.33395478
46	0xbde6bc4e	-0.11266385
47	0x3e301cb6	0.17198452
48	0x3ebaa59a	0.3645447
49	0x3e9232e0	0.2855444
50	0xbeb2aa99	-0.3489578
51	0xbd73656c	-0.059422895
52	0xbe37ca6e	-0.17948315
53	0x3dc51a61	0.09624172
54	0xbe53980d	-0.20663472
55	0xbe3e6b03	-0.18595509
56	0xbe61f115	-0.22064622
57	0x3e1848cc	0.1487152
58	0xbd767bea	-0.060176767
59	0xbe21cc05	-0.15800484
60	0xbe373d0c	-0.17894381
61	0x3d4dea8c	0.05027251
62	0xbe3c99b3	-0.18418007
63	0xbe45d25b	-0.19318525
64	0xbe97f182	-0.29676443
65	0xbe7e35d6	-0.24825224
66	0xbe55f356	-0.20893607
67	0x3d314e9e	0.043287866
68	0xbe3670c4	-0.17816454
69	0xbdeca861	-0.11555553
70	0xbe5b554e	-0.2141926
71	0x3ccd8e04	0.025092132
72	0xbe84bac0	-0.2592373
73	0x3cd11bfc	0.02552604
74	0xbe9c0fd0	-0.30480814
75	0xbce58d4e	-0.02802148
76	0x3dba5c6e	0.09099661
77	0xbcd4aa8a	-0.025960226
78	0x3dffd709	0.124921866
79	0xbd851506	-0.064981505
80	0xbdb35175	-0.08755771
81	0x3e26f48e	0.16304228
82	0x3dba114b	0.090853296
83	0x3dcbdefb	0.099546395
84	0x3e55405d	0.20825334
85	0xbec325d7	-0.38114807
86	0xbe906d25	-0.2820827
87	0xbdeec2c1	-0.1165824
88	0x3df26408	0.11835486
89	0x3df054c6	0.11734919
90	0xbecf6570	-0.40507078
91	0xbdc972b8	-0.09836334
92	0x3e335219	0.17511787
93	0x3e9a10ba	0.30090886
94	0x3eacc720	0.3374567
95	0xbe1a3582	-0.15059474
96	0xbd99d505	-0.075113334
97	0x3e76703a	0.24066249
98	0x3e892334	0.2678467
99	0x3e0c966a	0.13729253
100	0x3d88c4a2	0.0667813
101	0xbe3a6a0e	-0.18204519
102	0xbe8b5499	-0.2721298
103	0xbd82b74f	-0.063826196
104	0x3e24df91	0.16100909
105	0xb95cc65f	-0.00021054734
106	0xbd388870	-0.045051992
107	0xbe95d56f	-0.292644
108	0x3cd77d2c	0.026304804
109	0x3e91acd7	0.2845218
110	0xbe3126e9	-0.173
111	0xbea0fbac	-0.3144201
112	0xbe9c32df	-0.30507562
113	0x3e3cfecc	0.18456572
114	0x3e3e08a7	0.18557988
115	0x3d53960a	0.05165676
116	0xbeb4c6b6	-0.35307854
117	0x3e03d0d7	0.12872635
118	0xbd57f13f	-0.052720305
119	0x3e77d56b	0.24202506
120	0xbdee0384	-0.11621764
121	0xbdecbfef	-0.11560046
122	0xbd809dd6	-0.06280105
123	0x3e5759f8	0.21030414
124	0xbced0302	-0.028932098
125	0xbea1dbc6	-0.31612986
126	0x3d8e03e3	0.06934335
127	0x3ea1c89d	0.31598368
128	0x3d8f1608	0.06986624
129	0x3ec64632	0.3872543
130	0xbe942987	-0.28937933
131	0xbeab1f54	-0.3342234
132	0xbdf34d35	-0.118799604
133	0x3e222194	0.15833122
134	0x3ce640f0	0.028107136
135	0xbe504899	-0.20340194
136	0xbef808e4	-0.48444283
137	0xbe571bc1	-0.21006681
138	0xbe4a710c	-0.19769686
139	0xbd9989b0	-0.07496965
140	0x3d51c080	0.051208973
141	0xbdae4fa4	-0.08511284
142	0xbedbf9df	-0.42964074
143	0xbe6060bd	-0.21911903
144	0xbe39d11b	-0.18146174
145	0x3e8bac60	0.2727995
146	0x3e1aaf1d	0.15105863
147	0xbe12ec7a	-0.14348021
148	0x3d44c75c	0.048041686
149	0xbea9393e	-0.33051485

conv1.bias f4 [6]
0	0x3d97043a	0.07373853
1	0x3dc3d8b9	0.09562821
2	0xbe092b44	-0.13395411
3	0xbdadadfd	-0.08480451
4	0x3dba34d7	0.0909211
5	0x3dd59967	0.1042965

conv2.weight f4 [16, 6, 5, 5]
0	0x3d86b6e6	0.06577854
1	0xbd8668fd	-0.06562994
2	0xbd200491	-0.039066855
3	0x3c12b740	0.008954823
4	0x3d163b08	0.03667739
5	0x3da4e55a	0.08051558
6	0x3d347be6	0.04406347
7	0xbc95beba	-0.018279422
8	0xbdb767b9	-0.089553304
9	0x3d9b3117	0.075777225
10	0x3d924d34	0.071436316
11	0x3b3cad13	0.0028789684
12	0xbe057cd7	-0.13035904
13	0xbdb92c60	-0.09041667
14	0x3c4c4aaa	0.012468973
15	0x3d44df30	0.04806441
16	0xbd8ec8fe	-0.0697193
17	0xbe159fd7	-0.14611755
18	0xbd601f46	-0.054717325
19	0xbd43e54d	-0.0478261
20	0xbd2de3ff	-0.042453762
21	0xbdc5130a	-0.09622772
22	0xbdfe5bbc	-0.12419841
23	0xbca228f5	-0.01979492
24	0xbd928b91	-0.071555264
25	0x3da04005	0.07824711
26	0xbd656204	-0.056001678
27	0x3cff4fdd	0.031166011
28	0xbdd11798	-0.10209578
29	0xbe0ac7f4	-0.13552839
30	0xbd7475ba	-0.059682585
31	0xbd5c6c59	-0.053814266
32	0x3c8a6cd6	0.0168976
33	0x3d5cd694	0.053915575
34	0xbdfbc561	-0.122935064
35	0x3dc63de9	0.09679777
36	0x3ce94f72	0.028480265
37	0xbc1a723c	-0.00942665
38	0xbd24e620	-0.040258527
39	0xbe388d57	-0.18022667
40	0x3de28619	0.11060733
41	0x3e29f6e2	0.16598085
42	0x3d24ce8a	0.040236033
43	0xbe492749	-0.19643892
44	0xbe937aba	-0.2880457
45	0x3d22f28f	0.039782103
46	0xbbcf0e84	-0.006318869
47	0xbe037e6c	-0.12841195
48	0xbe0ff7f9	-0.14059438
49	0xbcc01569	-0.02344771
50	0xbceb509b	-0.02872496
51	0xbc8132a8	-0.015771225
52	0x3bc811c1	0.006105632
53	0xbdaf415e	-0.0855739
54	0xbe2c2a64	-0.16813046
55	0xbdb7fc61	-0.08983684
56	0x3d57de95	0.052702505
57	0x3db9ef0b	0.09078797
58	0x3d6bfdf5	0.05761524
59	0xbe3ca8d6	-0.18423781
60	0xbd4a3436	-0.0493662
61	0xbd275ed5	-0.040861923
62	0x3e0538d4	0.1300996
63	0xbc95fc88	-0.018308893
64	0xbe2ece1d	-0.17070813
65	0xbcd2f8ca	-0.025753397
66	0xbd8c37bf	-0.0684657
67	0x3de779f9	0.11302561
68	0x3d820307	0.06348234
69	0xbe342a6d	-0.17594309
70	0xbd9ace67	-0.075588994
71	0x3d76f32d	0.060290504
72	0x3d5f5003	0.054519664
73	0x3cb27185	0.021782646
74	0xbc365c2e	-0.011130376
75	0x3dbfefd2	0.09371914
76	0xbcba060b	-0.02270796
77	0xbd45738e	-0.048205905
78	0x3dcb9138	0.09939808
79	0x3e33f407	0.17573558
80	0x3de4457e	0.11146067
81	0xbe4b92cd	-0.19880219
82	0xbcb25fec	-0.021774255
83	0x3dd5a646	0.10432105
84	0x3e2eca2a	0.17069307
85	0x3ba6d4c6	0.0050912825
86	0xbe5b9587	-0.21443759
87	0x3d130992	0.0358978
88	0x3dd3d8cd	0.10344086
89	0x3e25285f	0.16128682
90	0xbc04aa91	-0.008097307
91	0xbd0396ca	-0.032126226
92	0x3d2c01ef	0.04199403
93	0xbd22d9cb	-0.039758485
94	0xbc0f0f5a	-0.008731687
95	0x3ce882af	0.028382627
96	0x3c332845	0.010934894
97	0x3d2850ff	0.04109287
98	0x3c123e8a	0.008926043
99	0xbb3ea53e	-0.0029090191
100	0x3dbc964d	0.09208355
101	0xbd44653d	-0.04794811
102	0xbd90d2ff	-0.07071494
103	0x3d243e9a	0.040098764
104	0x3d9f62c4	0.0778251
105	0xbcd46bbe	-0.025930282
106	0xbe00d804	-0.12582403
107	0xbd7d31e4	-0.061815158
108	0x3de6466f	0.11243903
109	0x3e5953ad	0.21223326
110	0x3d659279	0.05604789
111	0xbd97b8a4	-0.07408264
112	0x3d8462ad	0.064641334
113	0x3dcc9843	0.09989979
114	0x3e79a6b8	0.24380004
115	0xbd9082e0	-0.070562124
116	0x3d6f65ac	0.05844657
117	0x3e01cd0f	0.1267588
118	0x3e37404d	0.17895623
119	0x3e19c1cd	0.15015335
120	0xbd30c0a0	-0.04315245
121	0x3dcc358b	0.0997115
122	0x3d4f1754	0.050559357
123	0x3cf80985	0.030277977
124	0x3d9b3000	0.07577515
125	0x3c0e7e7c	0.008697148
126	0x3dac7c93	0.08422198
127	0x3d38fe4a	0.045164384
128	0xbd152df5	-0.03642078
129	0xbe53d4e7	-0.20686685
130	0xbaf7d38c	-0.001890765
131	0x3d5d2bce	0.053996854
132	0x3c60165f	0.013677209
133	0xbd1dc149	-0.03851441
134	0xbe8f8fda	-0.28039438
135	0xbd2734a1	-0.040821675
136	0xbd947b1b	-0.07250043
137	0xbdca7d07	-0.09887128
138	0xbd83cbb9	-0.064353414
139	0xbe85480c	-0.2603153
140	0xbd999f97	-0.075011425
141	0xbc053558	-0.008130394
142	0xbce060bb	-0.027389875
143	0xbd93bbe7	-0.07213574
144	0xbe292920	-0.16519594
145	0xbdd6d150	-0.10489142
146	0xbd8a18cf	-0.06743013
147	0xbca41463	-0.020029252
148	0x3e12e216	0.14344057
149	0x3de1992d	0.11015544
150	0xbd8239d6	-0.063586876
151	0xbac720e2	-0.0015192295
152	0xbd341d7b	-0.043973427
153	0xbc485683	-0.012227657
154	0x3ce45360	0.027871788
155	0xbd164eb1	-0.03669614
156	0xbe13ef01	-0.14446642
157	0xbd254cee	-0.04035657
158	0xbc5243f2	-0.012833582
159	0x3ce81851	0.028331907
160	0x3db61409	0.0889054
161	0x3d11cbf4	0.035594895
162	0xbd224cef	-0.03962415
163	0xbc064c98	-0.008196972
164	0x3dafd0bd	0.085847355
165	0x3e2e8b38	0.17045295
166	0x3e0c1358	0.13679254
167	0x3e15067b	0.14553253
168	0x3e27bd65	0.16380842
169	0x3e21f897	0.15817486
170	0xbcb82876	-0.02248023
171	0x3d1af2b2	0.03782911
172	0x3c752e94	0.014964718
173	0xbd67a89c	-0.056557283
174	0xbcd86616	-0.026415866
175	0x3c8f23a7	0.017473055
176	0x3da2b1bf	0.079440586
177	0xbc80ef8d	-0.015739227
178	0xbde9b891	-0.114121564
179	0xbd78a51e	-0.060704343
180	0x3c8610f0	0.016365498
181	0xbc3bd494	-0.011464257
182	0xbce88440	-0.028383374
183	0xbd213b98	-0.039363474
184	0x3d21a912	0.03946788
185	0xbd37a89b	-0.04483853
186	0x3c58d2e9	0.013233879
187	0x3da18f41	0.07888652
188	0x3dff3216	0.12460725
189	0xbcba0b10	-0.022710353
190	0xbdf55706	-0.11979489
191	0xbc7428a0	-0.014902264
192	0xbbcfa660	-0.006336972
193	0xbdbc29d5	-0.09187666
194	0xbd91256f	-0.07087218
195	0x3ba244e0	0.004952058
196	0x3cdd6f45	0.027030597
197	0x3dc0e793	0.09419169
198	0x3dcf94f5	0.10135833
199	0x3e00f2bf	0.125926
200	0x3d9474e8	0.072488606
201	0xbb3958df	-0.002828173
202	0x3d2cdf70	0.042205274
203	0x3cc0ee38	0.023551092
204	0xbd28c050	-0.04119903
205	0x3c841acf	0.016126065
206	0x3de1fae0	0.11034179
207	0x3e3ff6fb	0.1874656
208	0x3dcefeda	0.10107203
209	0x3dde1ba7	0.10845118
210	0xbddf6ea8	-0.10909778
211	0xbc64f051	-0.0139733115
212	0xbd53860b	-0.051641505
213	0xbddfb109	-0.10922439
214	0xbd841b3d	-0.06450508
215	0xbd7aa3d4	-0.061191395
216	0xbcf13cfa	-0.029448021
217	0xbdcf4fd8	-0.10122651
218	0xbe356f04	-0.1771813
219	0xbde224be	-0.11042164
220	0x3d96e7fa	0.07368465
221	0xbd312f55	-0.04325803
222	0xbd81d90a	-0.06340225
223	0xbd344bdc	-0.044017658
224	0x3c97dbfb	0.018537512
225	0xbdb79d57	-0.08965557
226	0xbc23ceb2	-0.0099980105
227	0xbd74575b	-0.05965362
228	0xbd7b42f9	-0.061343167
229	0x3da830a1	0.082124
230	0xbc5689d3	-0.013094383
231	0xbe3f3cfc	-0.18675607
232	0xbcabbd83	-0.02096439
233	0xbcd229fc	-0.025654785
234	0x3d1ba9ae	0.038003616
235	0x3d261734	0.040549472
236	0xbd81be87	-0.06335168
237	0x3d58294a	0.05277375
238	0x3d8fbdbf	0.07018613
239	0x3db60846	0.08888297
240	0xbccccc69	-0.024999814
241	0xbd6d2035	-0.057892043
242	0x3cb04239	0.021515952
243	0xbda9d324	-0.08292225
244	0xbc6a16c0	-0.014287651
245	0xbd648b72	-0.055797048
246	0xbe535123	-0.2063642
247	0xbe137d5d	-0.14403291
248	0xbda5f461	-0.08103252
249	0xbde7ad05	-0.11312298
250	0x3d9b0916	0.075700924
251	0x3ca009e2	0.019535962
252	0x3da06d1e	0.078333125
253	0x3cbbe756	0.022937458
254	0x3c97a047	0.018509043
255	0x3d0222f6	0.031771623

conv2.bias f4 [16]
0	0x3d429f69	0.047515307
1	0x3dc57da3	0.09643104
2	0xbd09199f	-0.0334717
3	0xbb7cdb51	-0.0038582871
4	0x3ca1aef8	0.019736752
5	0x3dab8801	0.0837555
6	0x3c749ff7	0.014930717
7	0x3debdcae	0.11516701
8	0x3db600c6	0.08886866
9	0xbc76109b	-0.0150186075
10	0x3d511230	0.051042736
11	0xbc9490c6	-0.01813544
12	0x3d8cdcd1	0.06878055
13	0x3c73a42d	0.0148706855
14	0x3c66996c	0.014074665
15	0x3da4718f	0.08029472

fc1.weight f4 [120, 400]
0	0xbce8e78c	-0.028430723
1	0xbd619e9b	-0.0550829
2	0xbb8840dd	-0.004158123
3	0x3dccc8d3	0.09999242
4	0x3c6878be	0.014188943
5	0xbd0c993a	-0.034325816
6	0xbcb8bc59	-0.022550749
7	0x3d817274	0.06320658
8	0x3e259818	0.161713
9	0x3ced1522	0.028940741
10	0x3ca4df53	0.02012602
11	0x3d4e0f78	0.05030772
12	0x3e1a0f6d	0.15044947
13	0x3db0cb92	0.08632578
14	0x3dc69c96	0.09697835
15	0x3da7b200	0.08188248
16	0x3d0fc7f5	0.035102803
17	0x3cfc118c	0.030770086
18	0xbd39055f	-0.045171138
19	0xbe03d0c2	-0.12872604
20	0x3e044e1f	0.12920426
21	0xbc85499d	-0.016270453
22	0xbe2edf91	-0.17077471
23	0xbdca5092	-0.09878649
24	0xbd546d5c	-0.051862106
25	0x3e300743	0.1719027
26	0x3c68666d	0.014184576
27	0xbd424724	-0.047431126
28	0xbdf430be	-0.11923359
29	0xbdc9e989	-0.098589964
30	0x3e46633e	0.19373795
31	0x3dc9de73	0.09856882
32	0x3c3cf921	0.011534006
33	0xbd0f5027	-0.03498855
34	0x3d4135f1	0.047170583
35	0xbdb71de7	-0.0894125
36	0xbd7b11b7	-0.06129619
37	0xbd2fa65b	-0.04288326
38	0xbd15073e	-0.03638386
39	0x3d5de83b	0.05417655
40	0xbe242574	-0.16029912
41	0xbd3613b2	-0.044452377
42	0xbcc44e6f	-0.023963181
43	0xbd6b531b	-0.057452302
44	0x3d900a87	0.07033258
45	0xbda7d892	-0.081956044
46	0xbd0da99c	-0.03458558
47	0x3c86ec36	0.016470056
48	0x3de876de	0.11350797
49	0x3d80240e	0.06256877
50	0x3d3b1735	0.04567643
51	0x3cf07d93	0.029356753
52	0x3dd78ed8	0.10525292
53	0x3e134851	0.14383055
54	0x3da4a8ce	0.080400094
55	0xbdb9883c	-0.09059188
56	0xbe332e15	-0.17498048
57	0x390962ee	0.00013102192
58	0x3dae7450	0.085182786
59	0x3d81ddbc	0.063411206
60	0xbdd7669b	-0.10517617
61	0xbdd60193	-0.10449519
62	0xbdc29498	-0.09500998
63	0xbd07e39c	-0.03317605
64	0xbdd4df7b	-0.10394188
65	0xbbfe44d1	-0.0077596684
66	0x3d42acb8	0.047528
67	0x3d175255	0.036943752
68	0xbe6aa9dc	-0.22916359
69	0xbe78d877	-0.24301325
70	0x3dc356e4	0.095380574
71	0x3d746ce9	0.059674177
72	0x3ca4bdb6	0.020109992
73	0xbe76c7a3	-0.24099593
74	0xbe67751a	-0.22603264
75	0x3d3b7fcd	0.045776177
76	0xbce88fe6	-0.028388929
77	0x3ce6927e	0.028146025
78	0x3d445beb	0.047939222
79	0xbd9d1a33	-0.07671013
80	0x3d845ff2	0.064636126
81	0x3cda79e6	0.026669454
82	0x3d16a0f8	0.036774606
83	0x3d9f320a	0.07773216
84	0xbd936340	-0.07196665
85	0xbc8fd577	-0.017557843
86	0x3d8862cc	0.06659469
87	0xbd8570f1	-0.065156825
88	0x3c066396	0.008202454
89	0x3d263743	0.040580045
90	0xbdfe7368	-0.12424356
91	0xbcd17ed3	-0.02557317
92	0x3cac1388	0.021005407
93	0x3da99a81	0.082814224
94	0x3d45bbd2	0.048274823
95	0xbe0f2a47	-0.13980971
96	0xbcc5cee4	-0.024146505
97	0x3d7b8efb	0.061415654
98	0x3e4cb109	0.19989409
99	0x3d7316ce	0.05934792
100	0x3d7d59a3	0.061853062
101	0x3cbffa46	0.02343477
102	0xbca7c53e	-0.020479795
103	0x3d4a7f9c	0.049438104
104	0xbdc6a2e6	-0.09699039
105	0x3dc754ef	0.09732997
106	0x3e026063	0.12732081
107	0xbc49becf	-0.012313559
108	0x3d08b248	0.033373147
109	0xbc1f27bb	-0.009714062
110	0xbc9b577e	-0.018962618
111	0x3cd0e8ca	0.025501627
112	0x3dc0f15d	0.094210364
113	0xbde18201	-0.110111244
114	0x3c36e707	0.01116348
115	0xbdf40da5	-0.11916665
116	0x3a1bcca9	0.00059432775
117	0xbc056f00	-0.00814414
118	0xbbb640ad	-0.005561909
119	0x3d00c6fc	0.031439766
120	0xbe9c50fe	-0.30530542
121	0xbde99ba9	-0.11406643
122	0x3d4a6636	0.049413882
123	0x3e32b04e	0.17450067
124	0x3e1c8f50	0.15289044
125	0x3e49b6cb	0.19698636
126	0x3ddb6bbe	0.107139096
127	0x3cab1a99	0.020886706
128	0x3c8ac069	0.016937451
129	0xbdd72b62	-0.105063215
130	0x3ce0a9ed	0.027424777
131	0x3db72461	0.089424856
132	0x3cb0f82a	0.021602709
133	0xbdf8b79a	-0.12144394
134	0xbe019674	-0.1265505
135	0xbe0916d1	-0.1338761
136	0xbe602431	-0.21888806
137	0xbe196064	-0.14978176
138	0xbd853900	-0.065050125
139	0xbddda468	-0.10822374
140	0xbdbd0526	-0.092294976
141	0xbdd93c73	-0.10607233
142	0xbde38b46	-0.11110549
143	0xbdfde8d7	-0.12397926
144	0xbd1c7218	-0.038194746
145	0xbd896575	-0.067088045
146	0xbcfd9c5a	-0.030958343
147	0x3c97703e	0.018486138
148	0x3dcc2e8c	0.099698156
149	0x3e242dda	0.16033116
150	0xbe291991	-0.16513659
151	0xbe051911	-0.12997843
152	0xbe4e651a	-0.20155755
153	0xbdc79739	-0.0974564
154	0xbdc1ba59	-0.09459371
155	0x3ca654b8	0.020304069
156	0xbd4f17ed	-0.050559927
157	0xbd1a9305	-0.037737865
158	0x3da9a694	0.082837254
159	0x3d03ecf7	0.03220841
160	0x3dd4ea6b	0.10396274
161	0x3d0d5003	0.034500133
162	0xbd02cc53	-0.03193314
163	0x3d2bdae0	0.041956782
164	0x3e24bcb2	0.16087607
165	0x3d964815	0.07337967
166	0x3de7d7ac	0.11320433
167	0x3d1742d5	0.03692897
168	0xbd01f63a	-0.03172896
169	0x3c92edc9	0.01793565
170	0x3c016763	0.0078981845
171	0x3d7fe5be	0.06247496
172	0xbd560046	-0.052246355
173	0x3bab8103	0.0052338853
174	0xbdc4368e	-0.09580718
175	0x3d458265	0.048220057
176	0x3d4a3712	0.049368925
177	0xbcbeac82	-0.023275618
178	0x3d84af45	0.064787425
179	0xbd28c988	-0.04120782
180	0x3cf38cc9	0.029730218
181	0x3d9741d4	0.073856026
182	0x3c8a9997	0.01691894
183	0xbdc08d74	-0.0940198
184	0xbcf4fbb8	-0.029905185
185	0xbdc5c9fb	-0.09657665
186	0xbe8defa3	-0.2772189
187	0xbd16caa1	-0.036814336
188	0xbdb00abe	-0.08595799
189	0xbe1d3b82	-0.15354732
190	0xbb6fc797	-0.003658747
191	0xbdb88ca5	-0.09011201
192	0xbdd76b48	-0.10518509
193	0xbe20d538	-0.15706336
194	0xbd942e7e	-0.0723543
195	0x3d590893	0.052986693
196	0x3cf1b650	0.029505879
197	0x3d46c9fb	0.048532467
198	0x3e059d38	0.13048255
199	0x3d80f282	0.06296255
200	0xbcfebc37	-0.031095607
201	0xbd92a606	-0.07160573
202	0xbd54b3e3	-0.051929366
203	0x3c9ffec7	0.019530667
204	0xbd8e1ece	-0.06939469
205	0xbce713c1	-0.028207662
206	0xbd74041e	-0.05957424
207	0x3bfb91f7	0.0076773125
208	0x3c740aa8	0.014895119
209	0x3adbfedc	0.0016784328
210	0xbdb77972	-0.08958711
211	0xbe33d4a1	-0.1756158
212	0xbd594169	-0.053040896
213	0x3d1dd21e	0.03853046
214	0x3d747441	0.05968118
215	0x3d830608	0.06397635
216	0xbbfeb959	-0.00777356
217	0x3d03ac55	0.03214677
218	0x3d5923e2	0.053012736
219	0x3c687a82	0.014189364
220	0x3c2cf03c	0.010555323
221	0x3da06691	0.07832063
222	0x3d1a1818	0.037620634
223	0xbca6fd3d	-0.020384425
224	0x3d1b907b	0.037979584
225	0xbc122830	-0.008920714
226	0xbda01112	-0.07815756
227	0x3d6f2b0c	0.058390662
228	0x3a8996a2	0.0010497163
229	0xb9a7cfee	-0.00032007642
230	0xba81faa2	-0.0009916613
231	0x3db1dbea	0.086845234
232	0x3d25e2dc	0.040499553
233	0xbb0aee5f	-0.002119921
234	0xbb8424c8	-0.004032705
235	0x3dbbc55d	0.091685034
236	0x3dd7c51c	0.105356425
237	0x3dce4b05	0.100729026
238	0x3d8459ae	0.064624175
239	0xbcabf195	-0.020989219
240	0x3d83feb8	0.06445068
241	0x3e0b351f	0.13594483
242	0x3d7479c9	0.059686456
243	0xbdc5bcea	-0.09655173
244	0xbc966a02	-0.018361095
245	0xbcb0c88b	-0.021580001
246	0xbd093a2c	-0.033502743
247	0xbe56db47	-0.20982085
248	0xbe22082d	-0.15823431
249	0x3c8bbb74	0.017057158
250	0x3d850c27	0.064964585
251	0x3c0ca98d	0.008585346
252	0x3cd55031	0.026039215
253	0xbd97f4a5	-0.07419709
254	0xbe066b5b	-0.1312689
255	0x3e4ca79a	0.1998581

fc1.bias f4 [120]
0	0x3c8c8f90	0.0171583
1	0xbd094954	-0.033517197
2	0x3caf74d0	0.021418005
3	0xbd6a481e	-0.057197683
4	0x3d82c562	0.06385304
5	0xbd36276d	-0.044471193
6	0xbd8a3565	-0.067484654
7	0x3d02ef1b	0.03196631
8	0x3cc3465f	0.023837266
9	0xbc05d982	-0.008169534
10	0x3c804fa5	0.015662977
11	0x3d794268	0.060854346
12	0x3cc67c99	0.024229335
13	0x3c7165c7	0.014733738
14	0xba751f7e	-0.0009350701
15	0x3d0722f2	0.03299231
16	0x3d0b580a	0.034019507
17	0x3ce0db4a	0.027448315
18	0xbbc8eabe	-0.006131499
19	0x3b7f4993	0.0038953766
20	0xbc7a76cf	-0.015287115
21	0xbca85849	-0.02054991
22	0xbc9334e3	-0.017969554
23	0x3d070f0d	0.032973338
24	0x3d7692a1	0.06019843
25	0x3d80ec3e	0.062950596
26	0x3d04b6db	0.032400947
27	0x3c34fde4	0.01104686
28	0x3c502110	0.012703195
29	0x3b9cd413	0.0047860234
30	0xbd593d00	-0.05303669
31	0xbd5eb810	-0.054374754
32	0xbd350032	-0.04418964
33	0xbc3d62ab	-0.011559169
34	0x3c104a01	0.008806706
35	0x3d3a2940	0.045449495
36	0x3a6ec87e	0.0009108855
37	0x3c90e3a1	0.017686667
38	0xbc882680	-0.01661992
39	0x3c904e68	0.017615512
40	0x3c3c0484	0.011475686
41	0xbc2ebc58	-0.010665022
42	0xbcfbe297	-0.030747695
43	0xbcc16a7e	-0.02361035
44	0xbdb394f2	-0.087686434
45	0x3c61ea19	0.013788723
46	0xbcca0ae0	-0.024663389
47	0x3d20f0ed	0.039292265
48	0xbc7ec234	-0.015549231
49	0x3d4c6ac4	0.049906507
50	0x3c67173c	0.014104661
51	0xbccd7108	-0.025078312
52	0xbd5f1dfa	-0.054471947
53	0xbb64eb76	-0.0034930385
54	0x3d4ce02c	0.050018474
55	0xbd918f57	-0.07107418
56	0xbd346ebc	-0.044050917
57	0x3ccd6482	0.02507234
58	0xbd40166c	-0.046896383
59	0x3d82ec31	0.06392706
60	0x3c5ce2c3	0.013481799
61	0x3d523f63	0.05132998
62	0x3bdd1f86	0.0067481427
63	0xbc404c2a	-0.011736909
64	0x3d23c549	0.039983068
65	0xbcfc3d7d	-0.030791039
66	0x3d03a19d	0.03213655
67	0xbd1ec2c9	-0.03875998
68	0xbbc74c37	-0.0060820836
69	0xbd87f0ec	-0.06637749
70	0xbaf52749	-0.0018703724
71	0x3bd01533	0.0063501834
72	0xbd176034	-0.03695698
73	0x3cec62e7	0.028855754
74	0xbc4f58f4	-0.012655485
75	0x3d0b1c99	0.03396282
76	0x3aed6741	0.0018112437
77	0x3b30b725	0.0026964631
78	0x3b4b1264	0.0030986303
79	0xbd6d6367	-0.057956126
80	0xbd49cc91	-0.049267355
81	0xbd5e33e8	-0.05424872
82	0x3d0f0dad	0.03492515
83	0xbd7ce915	-0.06174572
84	0x3dba9424	0.09110287
85	0xbca63a42	-0.020291451
86	0x3aca73bc	0.0015445868
87	0xbd446f34	-0.047957614
88	0x3d3fe4cd	0.04684906
89	0xbd467f02	-0.048460968
90	0x3b2168dd	0.0024629154
91	0x3d59e5f3	0.053197812
92	0xbd62eb52	-0.0554002
93	0x3b89d0cf	0.0042058
94	0xbdae19ac	-0.0850099
95	0x3d97e173	0.07416048
96	0x3bc5750f	0.0060259174
97	0xbd39c639	-0.045355055
98	0xbd788bbb	-0.060680132
99	0xbc52e48a	-0.012871871
100	0xbc64b5a9	-0.013959327
101	0xbd935657	-0.071942024
102	0xbda2ff48	-0.07958847
103	0xbb853b93	-0.0040659397
104	0x3dc9b183	0.09848311
105	0x3d67ac40	0.056560755
106	0x3af000de	0.0018310805
107	0xbb90cf66	-0.004419255
108	0xbb033197	-0.0020018572
109	0x3d1b0815	0.037849505
110	0xbcbc477c	-0.022983305
111	0xbbf24500	-0.0073934793
112	0xbddb5a20	-0.10710549
113	0x3ccc4e74	0.024939753
114	0x3c889a49	0.016675131
115	0x3d01107f	0.031509873
116	0x3c401ff5	0.011726369
117	0x3cdfbe2e	0.027312364
118	0xbd9a3c7c	-0.07531068
119	0xbd985abf	-0.074391834

fc2.weight f4 [84, 120]
0	0xbbee93bf	-0.0072807963
1	0xbcfcdce1	-0.030867042
2	0x3d0723c3	0.03299309
3	0xbe255bb3	-0.16148262
4	0xbdc5fd1b	-0.09667417
5	0xbd340d35	-0.043957908
6	0x3da53d3e	0.08068322
7	0xbde5e146	-0.11224608
8	0xbd02b3ac	-0.03190963
9	0x3d4cc36a	0.04999105
10	0x3d5a9db3	0.05337305
11	0xbdd5c5ef	-0.104381435
12	0x3d989041	0.07449389
13	0x3e16126b	0.14655463
14	0xbe0c51c5	-0.13703068
15	0xbdad7858	-0.084702194
16	0x3dab1825	0.083542146
17	0x3ce04f4d	0.027381564
18	0xbdb59c43	-0.08867695
19	0x3c51d583	0.012807253
20	0x3db172d9	0.086644836
21	0xbe289cee	-0.16466114
22	0xbd26dba4	-0.04073681
23	0x3d919477	0.071083955
24	0x3db9d9c4	0.090747386
25	0x3db52fb7	0.088469915
26	0x3e0586e9	0.13039745
27	0x3d93ea18	0.07222384
28	0x3dc4f5de	0.09617208
29	0xbdbcf16f	-0.09225737
30	0x3af744b9	0.0018865085
31	0xbb229e34	-0.0024813535
32	0xbcaf8c34	-0.021429159
33	0x3ccf26b8	0.025287017
34	0xbd32c484	-0.043644443
35	0x3c8c5f6f	0.01713535
36	0xbddc29d9	-0.10750169
37	0x3d2f4101	0.042786602
38	0xbdc71e83	-0.097226165
39	0xbd1b9249	-0.037981305
40	0xbd0f5a93	-0.034998488
41	0xbda15c5f	-0.078789465
42	0xbd65244d	-0.055942822
43	0xbe2067b6	-0.15664563
44	0xbd148670	-0.036261022
45	0xbdb6c51b	-0.08924314
46	0xbdcac150	-0.09900153
47	0x3dd33209	0.10312278
48	0xbd1d29be	-0.038369887
49	0x3d838b0d	0.06423006
50	0x3c0d73cd	0.008633566
51	0xbda20acd	-0.07912216
52	0x3d85690d	0.065141775
53	0xbc70110e	-0.014652504
54	0x3d0264e5	0.0318345
55	0x3d83492c	0.06410441
56	0xbcb00164	-0.021485038
57	0xbe249e43	-0.16075997
58	0x3b7de546	0.0038741394
59	0x3dd1caa5	0.102437295
60	0x3e25d745	0.161954
61	0xbce49a8d	-0.027905727
62	0xbe0f05b4	-0.1396702
63	0xbd9807f6	-0.074233934
64	0xbde5f976	-0.112292215
65	0x3d8bff00	0.06835747
66	0xbdb5edaf	-0.08883225
67	0xbc0bf405	-0.0085420655
68	0xbdd947da	-0.10609408
69	0x3dbff27f	0.09372424
70	0xbd329c63	-0.043606173
71	0x3d9ecbb4	0.07753697
72	0xbe085c85	-0.13316543
73	0xbd35bf2a	-0.04437176
74	0x3dd2346d	0.10263906
75	0x3db6068e	0.08887969
76	0x3ba2e209	0.004970793
77	0x3d3bcc0b	0.045848887
78	0xbd86788e	-0.06565963
79	0xbad72288	-0.0016413489
80	0x3db2212f	0.086977355
81	0xba784bb0	-0.00094717275
82	0x3dcf3404	0.10117343
83	0xbd0c1df3	-0.03420825
84	0x3def00ab	0.11670049
85	0xbd63ca6a	-0.05561296
86	0xbcfce85e	-0.03087252
87	0xbd406c45	-0.046978254
88	0x3b24a598	0.0025123116
89	0x3b99ea13	0.0046970933
90	0xbbcb268a	-0.0061996626
91	0xbdcb50ba	-0.09927507
92	0x3db525e5	0.088451184
93	0x3c8e08da	0.017338205
94	0xbdf25952	-0.11833443
95	0x3dfbf205	0.12302021
96	0x3c78f34a	0.015194723
97	0xbc7774fa	-0.015103573
98	0xbe15a025	-0.14611872
99	0x3d78a9d0	0.06070882
100	0xbe155f6a	-0.14587179
101	0x3cdaa2e5	0.026689002
102	0x3c87ec5c	0.016592197
103	0x3d53b1b0	0.051683128
104	0x3cc02993	0.023457324
105	0x3d9cbfc2	0.076537624
106	0xbc9988d2	-0.018741999
107	0x3d9de8b7	0.077104025
108	0x3d8ccdae	0.06875168
109	0x3d2d7b79	0.04235408
110	0xbd9c4740	-0.07630777
111	0x3d060c7c	0.03272675
112	0xbdaab452	-0.083351746
113	0xbd3b786e	-0.045769148
114	0x3c37e47d	0.011223909
115	0x3dcd0f6e	0.100127086
116	0xbdebe667	-0.11518555
117	0xbd28284a	-0.041054048
118	0x3bac846d	0.00526481
119	0xbdcfe811	-0.10151685
120	0xbd6f8105	-0.058472652
121	0xbe28d5ef	-0.16487859
122	0x3d47d70a	0.04878906
123	0xbd2e97f1	-0.04262537
124	0x3dbd13fc	0.09232327
125	0x3c6aa5df	0.014321773
126	0xbd9b3f9a	-0.075804904
127	0xbe3c2e9d	-0.18377157
128	0x3dd887fd	0.10572813
129	0x3db4558a	0.08805378
130	0x3e536285	0.20643051
131	0xbc58589e	-0.013204722
132	0xbe17d7a0	-0.14828348
133	0x3db6c521	0.08924318
134	0xbd641e5a	-0.055693008
135	0xbc872b27	-0.016500069
136	0xbd0e2fae	-0.03471344
137	0xbdf9baa0	-0.12193799
138	0xbdcde31a	-0.10053082
139	0x3d8a334a	0.06748064
140	0xbd8c4e59	-0.06850881
141	0xbdb336a0	-0.08750653
142	0x3d8c1393	0.06839671
143	0xbd4fcb1c	-0.05073081
144	0x3dc33f91	0.09533609
145	0x3d2d32f9	0.04228494
146	0x3d1cc78e	0.038276248
147	0x3d7c6a64	0.0616249
148	0xbcea9208	-0.028634086
149	0x3d81129f	0.0630238
150	0xbd04d8d3	-0.032433342
151	0x3db977c7	0.09056049
152	0xbd18a66e	-0.037268095
153	0xbd38e11a	-0.04513655
154	0x3e01fd82	0.12694362
155	0x3d969eb5	0.0735449
156	0xbc3fea75	-0.011713614
157	0xbdb23580	-0.087016106
158	0xbc99e676	-0.01878665
159	0x3c4df141	0.012569726
160	0x3d9aa3f2	0.07550801
161	0xbde4a8a4	-0.11164978
162	0x3d206e2e	0.039167576
163	0xbde556c7	-0.11198192
164	0x3c507708	0.012723692
165	0x3d0abf14	0.033873633
166	0x3c02a316	0.007973453
167	0x3d973cb8	0.07384628
168	0x3c6c4e96	0.014423033
169	0xb9e5b30e	-0.0004381169
170	0xbbbcf8f4	-0.005766982
171	0xbe5021cd	-0.20325394
172	0xbc392bee	-0.011301978
173	0xbcf1b8a0	-0.029506981
174	0xbd8b7375	-0.06809131
175	0xbc82b794	-0.015956677
176	0xbe013326	-0.12617168
177	0x3d90a7d5	0.070632614
178	0xbddbb7f6	-0.10728447
179	0xbc9f5c97	-0.01945333
180	0xbd22faf2	-0.0397901
181	0x3a7d3804	0.0009659531
182	0xbc161fdd	-0.00916287
183	0x3d48ca8f	0.0490213
184	0x3d323fe9	0.04351798
185	0x3c6a7e91	0.014312402
186	0x3dd57d55	0.10424296
187	0x3e11acb6	0.1422604
188	0x3cad3014	0.02114109
189	0x3caf7761	0.021419229
190	0xbd9d35b8	-0.07676262
191	0xbd471e95	-0.04861315
192	0xbdcf72ac	-0.10129294
193	0x3d70475e	0.05866181
194	0x3d4daa9c	0.050211534
195	0xbd0428b1	-0.03226537
196	0xbde82b55	-0.1133639
197	0x3cc5143b	0.024057498
198	0x3d95f0f1	0.073213466
199	0xbd37efa4	-0.044906273
200	0xbd0b9ad6	-0.03408321
201	0xbd0ebe37	-0.03484937
202	0x3d18f8a7	0.03734651
203	0x3b2d3a61	0.0026432502
204	0x3ce31db9	0.027724134
205	0x3cb8a8ec	0.022541486
206	0x3d7c182d	0.061546493
207	0x3d90e3a3	0.07074668
208	0x3ca930c5	0.020653138
209	0x3dad91a5	0.08475045
210	0x3bd3fe0d	0.006469494
211	0x3d80a0ba	0.06280656
212	0x3d7dd945	0.061974782
213	0xbdef0342	-0.11670543
214	0x3d8a40c2	0.06750633
215	0xbdb83a90	-0.08995545
216	0xbdc076ae	-0.09397636
217	0x3cc93c32	0.024564836
218	0x3d1985ee	0.03748124
219	0xbc84ceef	-0.016211955
220	0xbc8f4f43	-0.01749385
221	0xbce5d41a	-0.02805524
222	0xbc2f7e1b	-0.010711218
223	0x3d67d86e	0.056602888
224	0xbce7c041	-0.028289916
225	0xbcc90768	-0.024539664
226	0xbdf893d0	-0.12137568
227	0xbdf0477f	-0.11732387
228	0x3e2d2821	0.16909839
229	0x3dab5dfa	0.08367534
230	0xbd8be91e	-0.06831573
231	0xbdbb6b67	-0.09151345
232	0xbd4cc234	-0.049989894
233	0xbd32a7dc	-0.043617114
234	0x3e08ab7b	0.13346665
235	0xbcf98d87	-0.030462993
236	0x3d49e69c	0.049292192
237	0xbdce5285	-0.10074333
238	0xbc72f867	-0.014829732
239	0xbdcc1b4e	-0.099661455
240	0xbd0cfa34	-0.0344183
241	0xbc071774	-0.008245338
242	0xbdacbe04	-0.0843468
243	0xbca9c2e9	-0.020722823
244	0xbd2fe894	-0.042946413
245	0xbd8841f8	-0.066532075
246	0x3d974b4a	0.07387407
247	0xbb3d62ea	-0.0028898069
248	0xbda7a998	-0.08186644
249	0xbd920974	-0.07130709
250	0xbdbadc81	-0.09124089
251	0xbc2737ed	-0.010206205
252	0xbdaba41b	-0.0838091
253	0x3d16315d	0.03666817
254	0x3d422d0f	0.047406252
255	0x3db58683	0.08863547

fc2.bias f4 [84]
0	0x3db4a499	0.08820457
1	0xbd0b7cfb	-0.034054738
2	0x3c154dfc	0.009112831
3	0x3d4712fd	0.048602093
4	0xbdd50ab9	-0.10402436
5	0x3b269807	0.0025420205
6	0x3dcb3721	0.099226244
7	0x3d9f2d1e	0.07772277
8	0xbd20919d	-0.039201368
9	0xbd7f6307	-0.0623503
10	0x3d73d220	0.059526563
11	0xbd02da80	-0.03194666
12	0x3dd3eafc	0.10347554
13	0xbcfe4e3a	-0.03104316
14	0xbd979631	-0.074016936
15	0xbc4b25f8	-0.012399189
16	0xbc7e6665	-0.015527342
17	0x3d9ce7ef	0.07661425
18	0x3d3ffd7a	0.046872593
19	0xbdc6015f	-0.0966823
20	0x3db8bad1	0.090200074
21	0xbdc7d095	-0.09756581
22	0x3d82ffc7	0.06396442
23	0xbd1048bf	-0.035225626
24	0x3d577f6d	0.052611757
25	0xbdb7d945	-0.08976988
26	0xbdd7bf30	-0.10534513
27	0xbd762d2d	-0.060101677
28	0x3d48130d	0.048846293
29	0x3d038abf	0.03211474
30	0x3d0f5f4e	0.035003
31	0x3d85beb3	0.065305136
32	0x3d04331a	0.032275297
33	0x3dbaac82	0.091149345
34	0xbdc113da	-0.094276145
35	0xbcbc8f72	-0.023017619
36	0xbdd83aed	-0.10558114
37	0xbc59e77d	-0.01329982
38	0x3de64b98	0.11244887
39	0xbd3e162f	-0.046407875
40	0x3d00f5c0	0.031484365
41	0x3d8264e8	0.063669026
42	0xbd119d0d	-0.035550166
43	0xbd15af53	-0.036544155
44	0x3cbf0f17	0.023322625
45	0x3c6265fd	0.013818261
46	0x3d49d351	0.049273793
47	0xbd2aa682	-0.0416627
48	0xbdc95b1f	-0.09831833
49	0xbe221ee3	-0.15832095
50	0xbdd0b8a3	-0.10191467
51	0x3da17677	0.078839235
52	0xbc218aea	-0.00985978
53	0xbbe01253	-0.006838122
54	0x3db3ca6b	0.087788425
55	0xbe02194b	-0.12704961
56	0x3d7cbf4f	0.061705884
57	0x3dd6fa77	0.10496991
58	0xbd694ce2	-0.056958087
59	0x3b67d691	0.0035375694
60	0xbdccc14a	-0.099978045
61	0x3d7d867f	0.061895844
62	0xbd9e2509	-0.07721908
63	0xbdb02b3a	-0.08601995
64	0x3cc09762	0.023509685
65	0x3de3e6bb	0.11127993
66	0x3c99a53f	0.018755553
67	0xbe1a8cb9	-0.15092744
68	0x3d86e148	0.06585938
69	0xbd46b375	-0.048510987
70	0x3baedddd	0.0053365068
71	0x3da54033	0.08068886
72	0x3dd7d6a9	0.1053899
73	0xbc56afd8	-0.013103448
74	0xbdb82328	-0.089910805
75	0x3d41d813	0.047325205
76	0x3dcbaaa3	0.09944656
77	0x3d3ff021	0.046859864
78	0xbdc11cf9	-0.09429354
79	0xbc24b87a	-0.010053748
80	0xbb931c49	-0.004489456
81	0xbdb6d352	-0.08927025
82	0xbd1fe178	-0.039033383
83	0xbb63496e	-0.0034681219

fc3.weight f4 [10, 84]
0	0xbe06fc2b	-0.13182132
1	0xbceba845	-0.02876676
2	0x3dba25c9	0.09089238
3	0x3df4cb1b	0.11952802
4	0x3cfeae93	0.031089103
5	0x3d6a432d	0.05719297
6	0xbd8a0f34	-0.06741181
7	0xbe196376	-0.14979348
8	0x3d251533	0.04030342
9	0xbd46f713	-0.048575472
10	0xbd15f4c0	-0.036610365
11	0x3d0abdb4	0.03387232
12	0x3d37c8f9	0.044869397
13	0x3e34bbcf	0.17649768
14	0xbe89d25f	-0.26918313
15	0x3e516da5	0.20451982
16	0xbd9e4984	-0.07728866
17	0x3df27f47	0.118406825
18	0x3e353f84	0.1770001
19	0xbc60f7a1	-0.013730914
20	0x3bf5cdcf	0.007501341
21	0xbe7def28	-0.24798262
22	0xbd71c0f3	-0.0590219
23	0xbd771645	-0.060323972
24	0x3dc5d826	0.09660368
25	0xbc32546d	-0.0108843865
26	0xbcf5236b	-0.029924115
27	0xbc93d226	-0.018044543
28	0x3d032a92	0.03202302
29	0xbb6a94b5	-0.0035794203
30	0xbda23151	-0.079195626
31	0xbdebc7af	-0.11512696
32	0xbd848713	-0.06471076
33	0xbe3047b5	-0.17214854
34	0x3d45479c	0.048163995
35	0xbe757d82	-0.23973659
36	0x3d5bf4cd	0.053700257
37	0xbd4d4518	-0.05011472
38	0x3e10d833	0.14144973
39	0xbe57bc5f	-0.21067952
40	0x3c42ba17	0.011885188
41	0xbe7573a7	-0.23969899
42	0xbe8b48a0	-0.27203846
43	0xbdc6b20d	-0.09701929
44	0xbd297e2a	-0.041380085
45	0x3d90f6c1	0.070783146
46	0xbe0705f8	-0.1318587
47	0x3da4ef2d	0.08053432
48	0xbe9e0940	-0.30866432
49	0x3d7958c3	0.060875665
50	0x3e0ee511	0.1395457
51	0xbe6374a1	-0.22212459
52	0xbd127ccc	-0.035763547
53	0x3ce061df	0.027390419
54	0xbe04b758	-0.12960565
55	0xbb593d41	-0.0033148082
56	0xbcf0d56e	-0.029398646
57	0xbdf1596b	-0.11784633
58	0x3e137cbd	0.14403053
59	0xbe100a6a	-0.14066473
60	0x3c7ada9d	0.0153109105
61	0xbd64744c	-0.05577497
62	0xbd9eb9ae	-0.07750259
63	0x3ca579e9	0.020199733
64	0x3d5b5d50	0.053555787
65	0xbe17a1fc	-0.14807886
66	0xbe013cc0	-0.1262083
67	0x3e58bb55	0.21165211
68	0x3d2bd20f	0.041948374
69	0xbc8938c8	-0.016750708
70	0xbdfcb3e8	-0.12339002
71	0xbd73fc42	-0.059566744
72	0x3e0b57b2	0.13607672
73	0xbe0ca255	-0.137338
74	0xbe06c684	-0.13161665
75	0x3e322942	0.17398551
76	0xbe32afb3	-0.17449836
77	0xbe3c8ddb	-0.18413489
78	0x3de2014a	0.11035402
79	0xbe25d290	-0.16193604
80	0x3da2f621	0.079571016
81	0x3d956f8e	0.07296668
82	0xbc9f9579	-0.019480454
83	0xbd88064c	-0.06641826
84	0xbca04339	-0.019563304
85	0x3dbf5e63	0.09344175
86	0x3db4100d	0.08792124
87	0x3dcceae1	0.10005737
88	0xbdce3327	-0.1006835
89	0x3dc4d188	0.096102774
90	0xbd0d0767	-0.034430888
91	0x3e1beeb6	0.1522778
92	0x3e5877af	0.21139406
93	0x3d4aca82	0.049509533
94	0xbe09384a	-0.13400379
95	0x3d49b05c	0.049240455
96	0xbe7493c4	-0.23884493
97	0xbbe6068a	-0.0070198225
98	0xbd572d7a	-0.052533604
99	0x3dcebb38	0.10094303
100	0xbe47ec61	-0.19523765
101	0xbd664c18	-0.056224912
102	0xbe837177	-0.25672504
103	0x3d8f3c38	0.06993908
104	0xbdbc448f	-0.09192764
105	0xbe8617f0	-0.26190138
106	0x3b6e25d3	0.0036338463
107	0xbdcc127d	-0.09964464
108	0xbd2300fb	-0.039795857
109	0xbd084ad8	-0.0332745
110	0xbcdca1e0	-0.026932657
111	0xbc0f2c0c	-0.008738529
112	0xbb838dfc	-0.0040147286
113	0xbd6f447a	-0.058414914
114	0xbd8763c4	-0.06610826
115	0x3e26fc19	0.16307105
116	0xba54e40e	-0.0008121141
117	0x3d1a0283	0.03760005
118	0xbbb9c6b5	-0.0056694397
119	0xbe0e522e	-0.13898537
120	0xbe73c678	-0.23806179
121	0x3e35b21a	0.17743722
122	0xbddd3215	-0.10800568
123	0xbe1d8cb5	-0.15385707
124	0xbd2d8e96	-0.04237231
125	0x3d9456a5	0.07243089
126	0x3d84f20c	0.06491479
127	0xbe063f39	-0.13110055
128	0x3d5b5bab	0.05355422
129	0xbd238776	-0.039924107
130	0xbc88c656	-0.016696136
131	0x3d7b8f18	0.06141576
132	0x3df57888	0.1198588
133	0xbda30add	-0.079610564
134	0xbd9c82e1	-0.07642151
135	0xbb6c35c6	-0.0036042794
136	0x3d15b715	0.036551554
137	0xbd80f0e7	-0.062959485
138	0x3c439b3f	0.011938869
139	0xbdfe9822	-0.12431361
140	0x39c7d582	0.00038115314
141	0xbc202906	-0.009775406
142	0x3d9483b1	0.07251681
143	0xbc935a76	-0.017987471
144	0xbbfc12e4	-0.0076926816
145	0x3df800e8	0.12109548
146	0xbc92fc65	-0.017942617
147	0x3dd8ab9d	0.10579608
148	0xbe8ac36b	-0.27102217
149	0xbe0eec6e	-0.13957378
150	0xbd939826	-0.072067544
151	0xbdaff03d	-0.08590744
152	0x3db6d42b	0.089271866
153	0xbd47dba2	-0.048793443
154	0x3e029a67	0.12754212
155	0xbdcfec22	-0.10152461
156	0xbe4ab6a9	-0.19796242
157	0xbe6a396e	-0.2287347
158	0x3e499b79	0.19688214
159	0xbbdb40a3	-0.006691055
160	0xbe036c74	-0.1283434
161	0xbe381c04	-0.17979437
162	0xbd92fe5d	-0.07177422
163	0xbd6c0cfb	-0.057629567
164	0xbe2b1c64	-0.16710049
165	0xbcd94489	-0.026521938
166	0x3d9994ff	0.07499122
167	0x3d8e28d7	0.06941383
168	0x3d9c6a66	0.076374814
169	0xbd8277ed	-0.0637053
170	0x3d9d9723	0.07694843
171	0x3daf39e1	0.085559614
172	0x3dd77509	0.105203696
173	0xbaf8a3a8	-0.0018969672
174	0xbd33a02c	-0.043853924
175	0xbd884981	-0.06654645
176	0xbe66bdb4	-0.22533303
177	0xbe34af22	-0.17644933
178	0xbd8a47f2	-0.06752004
179	0xbe035e71	-0.12828995
180	0x3d4d5f6b	0.050139826
181	0x3da2025d	0.07910607
182	0xbdecbf48	-0.115599215
183	0xbdc72106	-0.097230956
184	0xbe83a49a	-0.2571152
185	0x3db6ec2c	0.08931765
186	0x3bba2bee	0.0056815064
187	0xbdc76bff	-0.097373955
188	0xbda0c237	-0.078495435
189	0x3db2e92f	0.087358825
190	0x3e0ae968	0.135656
191	0xbdb44414	-0.08802047
192	0x3e1c4a33	0.1526268
193	0x3e1493ef	0.14509557
194	0xbe1947d8	-0.14968812
195	0x3cba2f85	0.022727737
196	0x3e0a7459	0.13520946
197	0x3de0bf47	0.10973983
198	0xbd3ece49	-0.046583448
199	0x3d6fb90a	0.058526076
200	0x3df30aaa	0.118672684
201	0xbe329729	-0.17440476
202	0xbd97ec0f	-0.074180715
203	0x3dfc474c	0.12318286
204	0x3ac6755c	0.0015141177
205	0xbc3307e7	-0.010927177
206	0xbd30f643	-0.043203603
207	0xbdfc950b	-0.12333115
208	0x3dc08c93	0.094018124
209	0x3d7d2868	0.061806113
210	0xbd9dea46	-0.077107
211	0x3e1213e5	0.14265402
212	0xbe3efbf0	-0.18650794
213	0x3daaaa9f	0.08333325
214	0x3db2b39a	0.087256625
215	0xbdf9283f	-0.121658795
216	0xbd918cc2	-0.071069255
217	0xbdb9ac2e	-0.09066044
218	0xbde744e6	-0.11292438
219	0x3e041919	0.12900199
220	0xbe04307b	-0.12909119
221	0x3d126d87	0.035748985
222	0xbe2ec98b	-0.1706907
223	0xbd8d40c6	-0.0689712
224	0xbd41c1d7	-0.047304
225	0x3d26c25f	0.04071271
226	0x3db9f265	0.09079436
227	0x3e241c19	0.16026343
228	0xbd557d0b	-0.052121203
229	0x3e317cd8	0.1733278
230	0x3cfa04ab	0.030519804
231	0xbd45e9ee	-0.048318796
232	0xbdb151f1	-0.08658207
233	0xbbfad7a9	-0.007655103
234	0xbda659b3	-0.081225775
235	0xbd6498ba	-0.055809714
236	0x3d61ce7e	0.055128567
237	0xbc0c0f54	-0.008548576
238	0xbd10f58c	-0.03539042
239	0xbdb0aee7	-0.0862711
240	0x3bb492ac	0.0055106487
241	0x3a24ec8d	0.00062913523
242	0xbd8ec531	-0.06971205
243	0xbe2c1093	-0.16803198
244	0x3d7a49ed	0.061105657
245	0xbad1f408	-0.0016018162
246	0x3cdec06c	0.027191363
247	0x3dfcea68	0.12349397
248	0x3b8d3e04	0.0043103714
249	0x3cebbf90	0.028777868
250	0xbe3f0010	-0.18652368
251	0x3d694bcf	0.056957062
252	0xbd3e6832	-0.046486087
253	0xbe5f7e1e	-0.21825454
254	0xbd3a3f05	-0.045470256
255	0x3dba37c2	0.09092666

fc3.bias f4 [10]
0	0x3dcf2dbe	0.101161465
1	0xbddf1e41	-0.10894442
2	0xbdbac987	-0.091204695
3	0xbd562291	-0.05227906
4	0xbd90818a	-0.070559576
5	0xbdc1ae23	-0.09457042
6	0xbcfa7f6b	-0.030578336
7	0xbdb9a491	-0.09064592
8	0x3de22f76	0.11044209
9	0x3d5bb3c8	0.05363825
