CNN/python/project/models/model-mnist_10.pth (torch, 253168 bytes, 10 tensors)

weight f4 [6, 1, 5, 5]
00000000: 807d 4d3d 761e 89bb c782 573e bf7d 003e
00000010: 22e1 d0bd d9d1 a13d 5945 7ebd 36f1 993e
00000020: b668 193e 76f7 b13d ac68 12be 23c0 2d3e
00000030: 710b 9e3d 1cb0 713e b5b3 de3d e13c ee3c
00000040: 6b21 9cbe a10d 25be 34eb 70bd aec1 e13d
00000050: a8b7 1abe c9f1 6ebe e7b4 9ebd 02ab 9cbe
00000060: 91cf d73d ca05 c4be 3571 d2be b7da 8ebe
00000070: d150 66bc 9c30 133e 102a 013e f216 a7be
00000080: a481 8ebe ac7e 8ebe 04e2 683d d858 433e
00000090: 13a1 f43d b950 c9be 59cf f8be dfef eabd
000000a0: 4829 283d 1c89 773e 17ea c2bd f876 9dbe
000000b0: 4f12 56be ee34 503e 7227 0e3e d3ea 3e3d
000000c0: 3828 9bbe faad d2be 37a6 553e 3d79 8d3c
000000d0: 941d a7be fd6c 88be aa4a 3fbe 95a3 2b3d
000000e0: 234e 493e 82d8 513d 9a05 863e 7fe6 66bd
000000f0: 1f8f 8c3d 0a27 1a3e faf6 193e b5f2 933e
00000100: 0e23 923e 8271 243e 05c1 38bd c259 363e
00000110: 0fed 263e d62f 3a3e 7abd ddbd 2ffd aabe
00000120: 10ab 9fbe 5ecd 95be 0c20 a6be 3a83 43be
00000130: 6c85 513e b51f 1a3e ad10 22be 6ae6 abbc
00000140: 9f13 cfbe 66a8 d63d 03f1 813e fa5f 21be
00000150: b45a a8bb 0891 bcbe 059e 00bd eb7c 7d3e
00000160: fd46 f33d 74d7 50bd ca45 8abe 2f89 793e
00000170: 4183 8e3e f5b3 753e 40cf 3a3e 5573 1b3e
00000180: 716f f53d be08 ce3d d26d 59be 7101 6ebe
00000190: bc8a 1abe d02a 1abd 85c8 673c 338a 203e
000001a0: b161 5d3e c1c4 89be 4e08 9e3b e08b 123e
000001b0: 7153 cebc d162 633d 9236 57be 7710 78be
000001c0: 0dfa b13c 182b 623e 63b0 f43d f03e 9abe
000001d0: 9cb7 f33c ce75 0f3d 55ad 683c eadd 593e
000001e0: 0b8f 3ebe 381d 6f3c 929c 5d3e 8ecc cebd
000001f0: 7e99 313d d3a7 f7bd 24eb 1c3e c99b 80bd
00000200: a710 493e 4d53 f9bc 3a3f 143d 039d 5c3e
00000210: e3f0 0dbe e74e 60bd 0656 1cbe 1797 3d3e
00000220: c1fa 243e 0dc2 063e 2fdb 96bd 9a44 eebe
00000230: b5c1 0c3e 3b4c 103d a20f 6b3e 18aa 3abe
00000240: b473 d1be 0ed9 83bd 4a8d aa3e 3b9c 8c3e
00000250: 2c43 40be 4663 59be
0.050168514 -0.0041845394 0.21045981 0.12547968 -0.10199191 0.079013534 -0.062077854 0.30066842
0.1498135 0.086897776 -0.14297742 0.16967826 0.07717026 0.23602337 0.1087412 0.029081764
-0.30494246 -0.1611848 -0.058818057 0.110232696 -0.15109122 -0.23334421 -0.07749348 -0.3059922
0.10537637 -0.38285667 -0.41101995 -0.2790124 -0.014057354 0.14374012 0.12613702 -0.32634693
-0.27833283 -0.27831018 0.05685617 0.1907686 0.11944785 -0.393194 -0.48595694 -0.11471533
0.041054994 0.24173397 -0.09517305 -0.30754828 -0.20905422 0.20332691 0.13882235 0.046610665
-0.30304122 -0.4114836 0.20864187 0.017269725 -0.32639754 -0.2664565 -0.18680826 0.04190405
0.19658713 0.05123187 0.2617615 -0.056372162 0.06863236 0.15053955 0.1503562 0.28896108
0.2854237 0.16058925 -0.045105953 0.17807677 0.16301368 0.1818231 -0.108271554 -0.3339629
-0.31185198 -0.29258245 -0.32446325 -0.19093028 0.20461053 0.15051158 -0.15826674 -0.020983893
-0.40444657 0.10481338 0.2537919 -0.15759268 -0.005137766 -0.368294 -0.0314007 0.24754684
0.11878774 -0.050986722 -0.2700637 0.24368738 0.27834514 0.2399443 0.18243122 0.15180714
0.119841464 0.10060261 -0.212333 -0.23242737 -0.15091985 -0.037638485 0.014146929 0.15677719
0.21619298 -0.26907924 0.0048227673 0.1431117 -0.025186272 0.05551416 -0.2101691 -0.24225031
0.021725679 0.22086751 0.119477056 -0.30126143 0.029750638 0.035024457 0.014201482 0.2127606
-0.18609254 0.014594369 0.21641758 -0.100976095 0.043359272 -0.12092557 0.15324074 -0.06279714
0.19635259 -0.030435229 0.03619311 0.2154427 -0.13861422 -0.054762747 -0.1526719 0.18514667
0.1611128 0.13159962 -0.07366025 -0.46536714 0.13745768 0.03522895 0.22955182 -0.18228948
-0.40908587 -0.06437884 0.3331092 0.27462944 -0.18775624 -0.21229276

bias f4 [6]
00000000: 78b0 723d 925e 913d 4fa8 c23d 8282 7cbe
00000010: d512 0dbe b532 e7bd
0.059250325 0.07098116 0.095047586 -0.2465916 -0.13776715 -0.112889685

weight f4 [16, 6, 5, 5]
00000000: 2b2b 0bbe 5bab 22be 1668 77bc a206 22be
00000010: d5aa 31bd 1336 ab3d 9db6 adbb f5ec 77be
00000020: 77c3 c6bd 9ad5 0cbd f3d9 c23d e431 3d3e
00000030: 804a 5dbc 1f57 52be c3b7 12be 3773 62bd
00000040: 41d5 7d3d 348e 383e 0f35 cc3c 6fdf b0bc
00000050: 75b5 febd 6470 36bd 26d1 d33d 84bb 383e
00000060: afca cb3b f7b4 dfbd 74a2 75be e9f4 cdbe
00000070: 9a7d 70be a4ca 6cbd 1413 eabd 81ff a6bd
00000080: 2afd 18be c8bb 13be df58 25be 3c99 233e
00000090: 606d 24bd 3c3d 823e bf08 0d3e 28aa 74bd
000000a0: c9bb 683d 73e0 ef3c 794e c4be 66d1 1c3d
000000b0: 672a 0abc 191a 0dbe 7295 e1bd 3dfa 3fbe
000000c0: a492 87bd 06b6 183b 1a99 46be 0e26 09be
000000d0: 0c45 183e 9f15 c23d af16 98bd 8867 18bc
000000e0: f1ab 38be 20ef 6ebe bb70 2abe 4925 283d
000000f0: 258e 95bc 51c4 643e 2b71 8a3d 193a efbd
00000100: 91b9 c6bd 7aaa 33be 1cb5 8f3d 86a8 6b3e
00000110: a427 153e 671f 7d3c 93d3 03be d2e3 79be
00000120: f23e 8d3d ae65 0d3e da0f 0c3e 8dd8 c33d
00000130: 9c90 8ebc ffb0 813d b49c f13d 2a34 28bd
00000140: 5b9d b7bc 0019 8abd 4c6c 48be b454 db3c
00000150: 188a 883d a38f 933d dce8 83bb 5d17 8e3c
00000160: 066c 65be 93b0 683d c394 a6bd 10f4 cdbc
00000170: 9bf6 243e 3f8f 15be b0ab 003d 1588 b3bd
00000180: 8720 8ebd b290 c4bc 9b78 f53d b1dc 12bd
00000190: 225d dcbc e918 863b e66f 0ebd c79e 583d
000001a0: 034d 93bd 06ce e63d 0661 8bbd 77d3 82be
000001b0: 8a25 44be c9f0 ba3d 0cbf 953c 5295 283d
000001c0: 6e7a babd 0c79 f5be 0dd2 52bb 4707 dabd
000001d0: 1c5c f43c 6253 b93d 9c72 37be 8002 83be
000001e0: 958f f7bd 193b 9cbd e17c 8f3d c65e 973d
000001f0: 59d5 8abe 165d 2c3e f8d2 853e 73b8 69bb
00000200: 6924 00be 90e9 8e3d ba60 9bbd e0f1 4a3e
00000210: a854 6e3e 3685 873b 2275 8fbd eb59 f1bd
00000220: fccc 5cbe 3b8c 4f3e 6d9e 3a3e 46ff 81bc
00000230: 01ec 23bd d4d1 a0be 6524 0dbe f379 223e
00000240: 3baf 5b3d 9a97 f0bd c644 28be 6e43 0fbe
00000250: 65ca 19bd e9e2 563d 683c 743c 7430 933d
00000260: ed8a d73c 7df6 7dbd 2721 26be bd7a 10bc
00000270: 90db 113e 48f4 80bb e4ec e33c c017 ccbc
00000280: bc2f 1c3d 41f1 1abc 25f6 38bc eb9d 5e3d
00000290: 64a1 d5bd e385 57bd e54e 73bd b518 463d
000002a0: d20f de3d 059e 0cbd 5ceb 6abe 7a32 99be
000002b0: 2a77 a6bd fb79 923d bcb6 4f3b 2aa7 93bd
000002c0: b90a 533d c2cc 41bd 72e8 5bbc de4e 583c
000002d0: af52 c5bd 5a7e 20be 81ce a0bd 5fe7 b53d
000002e0: c103 7cbd 571f b2bd f353 8fbd 466a c5bd
000002f0: eaba 283d 621f 36bd ee5f 823c fc2f c13c
00000300: 9b45 753d 70fc 953d 8c96 82bc 7d4e 283d
00000310: 499a e03d 6826 e1bb d28c b23c 735c ce3c
00000320: 0f5e 9ebd 694e 32be 6a83 f0bb 146a adbd
00000330: f0c5 27bd 03e2 30be 552a 88bd 16df 33bd
00000340: 26b0 02bc 3e41 ed3b 597d a0be b660 8ebd
00000350: f233 96bc 003c 84bd 4d6b c8bd 4146 51be
00000360: 1ac4 023d e44b 41bd 6863 a43c 8b3e bbbd
00000370: 794b 02be b015 b7be 94e2 83be a989 9ebc
00000380: 6ea2 d7bc 2de2 8a3c d246 c33d 15e0 d73d
00000390: 0c8f 34bd 1b3d 22be aff5 123e 5d98 ee3c
000003a0: 2367 c8bc 59e0 9bbd 6899 3bbe b28e e1bc
000003b0: 2eb8 fdbd b251 fa3d c16c 8b3c 21ac 89be
000003c0: 570e 25be eff7 37be bdfe a63d 2a15 2abc
000003d0: 349b 40be 04e2 d4bd 9e6b 8ebe d179 bbbd
000003e0: 4498 29bb bc74 333c d023 2b3e dffe 3d3e
000003f0: 26db 3b3e 0b11 b7bd 7982 803b 6f54 023e
-0.13590686 -0.1588568 -0.0151005 -0.15822843 -0.04337581 0.08359923 -0.00530131 -0.24211486
-0.09705251 -0.034383394 0.09514227 0.18476063 -0.013506532 -0.20541047 -0.14327912 -0.05528566
0.061970953 0.18022996 0.024927644 -0.021590916 -0.12436954 -0.044540778 0.10342626 0.18040282
0.00621923 -0.10923188 -0.23987752 -0.40225914 -0.23485413 -0.05781044 -0.1142942 -0.08154202
-0.14940324 -0.14427102 -0.16147183 0.15976423 -0.04014337 0.25437343 0.13772868 -0.059732586
0.05681971 0.02928183 -0.3834112 0.038285635 -0.008432961 -0.13779487 -0.110148326 -0.18747802
-0.06619766 0.0023301854 -0.19394341 -0.13393423 0.1487009 0.0947678 -0.074262016 -0.0093020275
-0.1803434 -0.23333406 -0.16644566 0.041051183 -0.018256256 0.22340514 0.06759866 -0.11681003
-0.09703363 -0.175455 0.07016966 0.23013505 0.14565903 0.015449381 -0.12873678 -0.24403313
0.068967715 0.13808319 0.13677922 0.09562788 -0.01740294 0.063325875 0.11797467 -0.041065373
-0.0224139 -0.067430496 -0.19572562 0.026773788 0.06666964 0.07205131 -0.0040255617 0.017345125
-0.22404489 0.05680902 -0.08133843 -0.025140792 0.16109698 -0.14605425 0.031413734 -0.0876619
-0.06939798 -0.023994777 0.11985894 -0.035855 -0.026899878 0.004092325 -0.034774683 0.052885797
-0.07192423 0.112697646 -0.06805615 -0.2555196 -0.19154945 0.091279574 0.018279575 0.041158028
-0.09105383 -0.47943914 -0.0032168657 -0.10645919 0.029829077 0.09049107 -0.17914814 -0.25587845
-0.12087933 -0.076284595 0.07006241 0.073911235 -0.27115896 0.16832384 0.2613752 -0.0035662919
-0.1251389 0.06978142 -0.075868085 0.1981883 0.23274481 0.004135753 -0.07004763 -0.117847286
-0.2156257 0.20268337 0.18224497 -0.015868794 -0.040019993 -0.31410086 -0.13783415 0.15866832
0.05363391 -0.11747666 -0.16432485 -0.13990566 -0.037546534 0.052462492 0.01490698 0.07186976
0.026311362 -0.062002648 -0.16223584 -0.008818326 0.14243913 -0.0039353706 0.02782292 -0.024913669
0.03813146 -0.0094569335 -0.011289154 0.05434982 -0.104311734 -0.05261792 -0.05940141 0.048363406
0.10842861 -0.034330387 -0.22941345 -0.29921323 -0.081281975 0.07152172 0.0031694612 -0.072096184
0.051523898 -0.047314413 -0.0134221185 0.013202397 -0.09634911 -0.156732 -0.078518875 0.08882021
-0.061527018 -0.08697384 -0.06998434 -0.09639411 0.04119388 -0.044463523 0.015914883 0.023582451
0.059880834 0.07323539 -0.015940927 0.041090477 0.109669276 -0.0068710335 0.021795664 0.025190568
-0.07732784 -0.17412724 -0.0073398845 -0.084674984 -0.040960252 -0.17273717 -0.06648699 -0.043913923
-0.007976567 0.0072404435 -0.31345633 -0.0695204 -0.018335316 -0.064567566 -0.09786091 -0.20436956
0.0319253 -0.047191516 0.020066932 -0.091427885 -0.12724103 -0.35758734 -0.25758803 -0.01935275
-0.02632257 0.016953552 0.09534992 0.10540787 -0.044081733 -0.15843622 0.14351533 0.029125387
-0.024463242 -0.0761115 -0.18320239 -0.027533863 -0.12388645 0.122226134 0.017019631 -0.26889136
-0.16118751 -0.17965673 0.08154056 -0.0103810225 -0.18809205 -0.103946716 -0.2781648 -0.09154094
-0.002587811 0.010953125 0.1671288 0.18554257 0.18345317 -0.089387976 0.0039218036 0.12727521

bias f4 [16]
00000000: 69bc a6bd f5f3 ffbd f6d0 07bd adf4 023e
00000010: 59fd 533d f61a 4fba 58c7 3f3c e5a5 a33d
00000020: c4d5 2abe 1126 b73d 18a4 143e 7553 813c
00000030: 562d 91bd a615 a93d ef88 d2bd 3a06 133e
-0.08141405 -0.12497703 -0.033158265 0.12788649 0.051755283 -0.0007900441 0.011705242 0.07990626
-0.16683108 0.089428075 0.14515722 0.015786866 -0.07088725 0.08256082 -0.10280024 0.14357844

weight f4 [120, 400]
00000000: b6d1 2a3e fdf6 30bd f769 79bd faad aebd
00000010: 8c8d 813c 1f0c 1d3c 5105 cdbc f883 83bd
00000020: 82c6 a5bd 325a 8dbd 1765 093e 209f 463d
00000030: 486a cebd 25f3 8dbd 6b35 0cbe 3057 253d
00000040: 3cd3 d6bc 5b16 e0bc 37da 143d d6d7 67bd
00000050: 1c0d 02be 0244 c1bc 5031 233d b9eb 223d
00000060: 4438 333d 3a5b 943d d93e 66bd 2268 26bc
00000070: 7b16 1a3e 8838 143e 0d32 a53d 3545 19bc
00000080: 7c73 b6bd 4634 8e3d e201 133e 1745 d03c
00000090: 916a 21bd 2041 22be 70f0 a8bd a6b2 ce3d
000000a0: 2e93 d83b ee3f 67bc 1284 15be afec 61bc
000000b0: 938f 0f3d dc17 49bc b716 6ebd 8c9e eabc
000000c0: 4e0f 9abd 9c66 eebd ee17 003e bcac ed3d
000000d0: 5c8d f0bb 1f63 583d be5e 15bd 5cbb ce3d
000000e0: 00d9 663a 4baa 1fbc 90b3 d5bd d086 6c3c
000000f0: 08d4 403d 5157 803b 2bd6 21bd c6a5 203d
00000100: 3987 353c 4d98 c2bd 8faa 03bd 08e7 2e3d
00000110: 92cf 193d 542d f13d 8096 a0be ddaf 86be
00000120: 02d2 32bd a6d5 3f3c 7dad 7bbd e31f 093c
00000130: f1d2 7f3c af16 343d 1ecb 86bc a8d4 e33d
00000140: 7e75 793d e990 933d f38d 133d f555 093d
00000150: 70bf 053e b170 9a3a c046 08bc 1c8e 87bd
00000160: 2d89 f43d 0bd2 95bd 3a53 dcbd 0e29 b7bd
00000170: b4bc d8bc b9db dc3c 51e9 18be 3327 57bd
00000180: 612a 05bd f382 c0bd 71db f4bd 7fce 68bd
00000190: 279c a63d a3d3 8d3b 880d a5bd 3476 bfbd
000001a0: 2933 fb3c 7c29 0fbd 832e 85bd 9b20 bb3d
000001b0: ef9d 39bd f460 f5ba c3a1 0cbd f41c 983c
000001c0: 2779 243d ce3b 4a3c 3fa1 6a3d 903f dbbd
000001d0: ef0d b8bd 6bae 47be a7f7 f63c f065 223d
000001e0: f668 3dbe 40f4 c3bd 32b2 17be ec11 d9bd
000001f0: 409e 433d bc15 123d ac1e 6dbb 52db a83d
00000200: 6838 f93c 8acc ba3b 148c b43d 5269 4c3d
00000210: 59c2 143d 4f8a bf3d 43b5 0d3e e28b e2bd
00000220: ba6e c9bd 84a8 eabd 78f1 3cbc 1df4 033d
00000230: b854 67bd 7164 c43d f94e e13c 1ec3 193d
00000240: d176 14bd f00f e8bd 4302 babd 7a81 08be
00000250: dc90 04be 4718 57bd 20a0 bbbd 998f 8a3c
00000260: 0d1c 123a 17b1 8dbd b3fa 4ebc 442f fbbc
00000270: 3fe1 93bd b8f7 0a3c 990b a33d 056f 2cbd
00000280: a74b 4e3c 81a1 83bd 7fb1 6d3b 9ef8 42bd
00000290: 1e26 64bc 2d67 bd3d 4920 de3a 281f b0bd
000002a0: ff10 14be e4a6 b4bd 9933 273e 78f0 97bc
000002b0: e1ed c4bd c368 c8bd d008 4fbd 8103 d93c
000002c0: 5b4f 1cbc 147a 12ba 50ef 983d 7746 683e
000002d0: e5ae d63d 5adc 4e3d 3f9f d6bc ecd2 083d
000002e0: 0bbb 583c b5bc 143e 80a6 863d 8c20 933a
000002f0: 9dde b23d c647 ac3d be6a 8b3b 84dd 25bd
00000300: 75bc b6bc 43f7 e53c 6888 2b3e 448f 9bbd
00000310: c751 0abd 35aa aabd 672b 32bd 18b4 abbd
00000320: d6ec 26ba 9c9c 82bd e9a0 00be 116f 853c
00000330: 105f a43d d67e 203d 57c0 963d 279e 1abd
00000340: 20f9 aebd 5428 b8bd 80c2 8a3c af33 81bd
00000350: a004 27bc 8fd3 0abe 30f2 0abe dea2 2d3d
00000360: bd3b babd ed44 04be 32a1 0dbd 8429 79bb
00000370: 4457 adbc e3d6 653c e128 7a3d ec84 9c3d
00000380: 132a bc3b 315d d23d 2472 5a3b c443 5fbd
00000390: f5b0 bc3b 5ed8 f73b 804c afbc 30c5 2e3c
000003a0: 0f07 3f3d 131a a2bc b05b bdbc a11b b5bc
000003b0: ab8c 2fbc 2ba0 e7bd 2180 01be c377 70bb
000003c0: fbe2 f13b 4a4d e23c 7952 59bd cfef ba3c
000003d0: 29e7 cb3d 593f a1be a77a 9ebd 6e60 8c3d
000003e0: 0d78 b43d ebed 0e3e 9651 87bd c748 973d
000003f0: dc44 71bc 9a1c ff3d ac05 b33c 3d98 8c3c
0.16681561 -0.043204296 -0.06089207 -0.08529277 0.015814565 0.009585409 -0.02502695 -0.064216554
-0.08094503 -0.06901969 0.13417469 0.048491597 -0.10078865 -0.06931142 -0.13692252 0.04036635
-0.026223771 -0.02735441 0.03634092 -0.05660232 -0.12700313 -0.023591999 0.03984195 0.039775584
0.04375483 0.072439626 -0.05621228 -0.010156663 0.15047638 0.1447469 0.08066187 -0.009354879
-0.08908746 0.06943564 0.14356187 0.02542357 -0.03940827 -0.15845156 -0.08248985 0.10092668
0.006609342 -0.014114363 -0.14601162 -0.01378934 0.035049032 -0.012273755 -0.05812713 -0.028640054
-0.075224504 -0.11640665 0.12509128 0.11605212 -0.00734107 0.052828904 -0.036467306 0.1009433
0.0008806139 -0.009745191 -0.104346395 0.014436439 0.04707721 0.003916659 -0.039510887 0.039220594
0.011079603 -0.09501705 -0.03214508 0.042700797 0.03755147 0.11776224 -0.31364822 -0.26306048
-0.04365731 0.011708653 -0.06144475 0.008369419 0.015614257 0.043966945 -0.016454276 0.11124545
0.060903065 0.07205374 0.036024045 0.03352924 0.13061309 0.0011782852 -0.008317649 -0.06618902
0.11940227 -0.07315453 -0.10758062 -0.089433774 -0.026457168 0.02696024 -0.14932753 -0.052527618
-0.03251112 -0.093999766 -0.119559176 -0.056837555 0.081352524 0.0043282076 -0.080592215 -0.09348717
0.030664044 -0.034951672 -0.06503012 0.091370784 -0.045316633 -0.0018720911 -0.034333955 0.018568493
0.040154602 0.01234336 0.057282683 -0.10705483 -0.089870326 -0.19500129 0.030147387 0.039647996
-0.1849707 -0.09568071 -0.1481407 -0.105991215 0.04775834 0.03566526 -0.0036181612 0.08244957
0.030422404 0.0057006525 0.0881578 0.04990513 0.036318157 0.09352552 0.13838677 -0.11061837
-0.098355725 -0.11457923 -0.01153218 0.032215226 -0.05647728 0.0958947 0.027503477 0.037539594
-0.036246125 -0.11331165 -0.09082463 -0.13330641 -0.12945884 -0.052513387 -0.09161401 0.016914176
0.0005573638 -0.06918543 -0.012633014 -0.030662186 -0.07220697 0.008481912 0.079611965 -0.042098064
0.012591279 -0.06427289 0.0036269126 -0.04760038 -0.0139251035 0.09248195 0.0016946878 -0.085996926
-0.14459608 -0.08820894 0.16328277 -0.018547282 -0.09615684 -0.09785607 -0.050545514 0.026490929
-0.009540404 -0.0005587649 0.0746752 0.2268313 0.10482577 0.050503112 -0.026198981 0.033404276
0.013228188 0.14525111 0.06574726 0.001122491 0.08733866 0.08412127 0.004254668 -0.040494457
-0.02230666 0.028072005 0.16751254 -0.07595685 -0.033769395 -0.08333246 -0.043498423 -0.083839595
-0.0006367689 -0.06377527 -0.12561382 0.016288312 0.08025944 0.03918346 0.07360905 -0.037748482
-0.085436106 -0.08992067 0.016938448 -0.06308686 -0.010193974 -0.13557266 -0.1356895 0.04239165
-0.090934254 -0.12916918 -0.034577556 -0.003801913 -0.021159776 0.014028284 0.06107414 0.0764254
0.0057423203 0.10271681 0.0033332193 -0.054507986 0.0057583996 0.007563635 -0.021398783 0.01066713
0.04663759 -0.019787824 -0.02311501 -0.022107901 -0.01071469 -0.113098465 -0.12646534 -0.0036692477
0.0073817945 0.027624745 -0.053057168 0.022819428 0.099562 -0.31493643 -0.07738238 0.0685433
0.0881196 0.13957946 -0.06607358 0.07386928 -0.01472589 0.12456627 0.02185329 0.017162437

bias f4 [120]
00000000: 6c47 0fbd 5586 273d 39a6 42bd 1491 30bd
00000010: 3461 c13c 9d18 7d3c d882 5e3c 1ffd b43a
00000020: 6375 84bb 379c b83c ba9c 2b3d fb39 f13d
00000030: 2afd 59b9 436b 5b3c 5086 33bd 4629 c0bc
00000040: 8a22 d63c d6fd 823d 63ba ba3c c1ab 553d
00000050: f7cd 9ebc 782d 88bd ff66 51bd 0649 bebc
00000060: 88de 633d 90f0 a63d 3520 b5bd b482 80bd
00000070: e258 1f3d e92f ed3a ef08 bebd 3b1e dd3a
00000080: d98c ba3c eb01 d6b9 6e3b 0cbd a951 d2bd
00000090: e2c4 cfbd 794e ffbd ae34 b6bc f4c0 87bd
000000a0: 2a87 72bd 2d3f 93bd 42f9 40bd e829 4fbd
000000b0: 7a4e 36bb 61c3 abbd c53e b7bc 50ef 8e3a
000000c0: 2c80 b3bc f7ec b83c 7671 a63c 88cd 3abc
000000d0: d0a7 58bc 07eb 213d 8e2b b9bc b25f ebbc
000000e0: e261 b13d 2f0a 45bd 6c2b ba3c 350a 013e
000000f0: 621a 1a3d a319 85bd b109 183d 4039 1d3c
00000100: 712e fabc 00f6 5bbc 1bc3 ea3c 0351 f93d
00000110: 47d5 3bbd 7fa6 f73b 6b0b 893d f8a4 f1bc
00000120: a050 bc3b ca50 85bc eafe a93d 8ea7 f73c
00000130: 878c 16bd 848f eb3b 1c7d 43bd 3f7c 883d
00000140: f8af eaba 7898 a83d de0d bbbc 1251 ce3a
00000150: 0e21 133d a4d4 81bd ccc6 d3bb a4e2 a0bd
00000160: 9357 7fbc 7dd1 56bd c5e7 a3bd 4f21 c13a
00000170: f8d3 f3ba 86e1 b53d d1c9 5c3d 36e2 11bd
00000180: 5014 1ebb 2e6f 633d 1f5d f33c 20e1 17bd
00000190: d822 e9bd 0c25 913b c8f0 1ebd 396e 0b3d
000001a0: 7dcf b7bc 452b 88bc d570 9bbd bb84 633b
000001b0: 991c ae3d 93b5 623d a204 023a 1dc8 09bd
000001c0: cbd7 233d 7a0c 123d dc2d ee3c 63cc f2bc
000001d0: 80a9 18bd 1497 31bd 76e9 7f3d 3c48 4a3d
-0.034980223 0.040899593 -0.047521804 -0.043107107 0.02360592 0.015447763 0.013581 0.0013808346
-0.004042314 0.022535427 0.041897513 0.11778637 -0.00020789044 0.013392272 -0.043829262 -0.02345718
0.026139516 0.063960716 0.022793954 0.05216575 -0.019385321 -0.066492975 -0.051123615 -0.02322818
0.055632144 0.081513524 -0.08844034 -0.0627493 0.038903125 0.0018095943 -0.09279048 0.0016869971
0.02277224 -0.0004081869 -0.034236364 -0.10269482 -0.10144974 -0.12466139 -0.022241917 -0.066286
-0.059210934 -0.07189784 -0.04711271 -0.050577074 -0.0027817772 -0.08386875 -0.022368798 0.0010905061
-0.021911703 0.022573931 0.020317774 -0.0114015415 -0.013223603 0.03953078 -0.022603776 -0.028732155
0.08661248 -0.048105415 0.022725783 0.1260155 0.037622817 -0.064990304 0.037118617 0.009596169
-0.030539723 -0.01342535 0.028657487 0.12173655 -0.045857694 0.0075576897 0.06691631 -0.029497609
0.005746916 -0.016273875 0.08300574 0.030231263 -0.03675511 0.0071887393 -0.047726735 0.06664323
-0.0017905226 0.08232206 -0.02283376 0.0015740714 0.035920195 -0.06339386 -0.0064629074 -0.07855728
-0.015584844 -0.052445877 -0.08003191 0.0014734658 -0.00186026 0.08880906 0.053903405 -0.035616122
-0.0024120994 0.05552595 0.02970749 -0.03707993 -0.11383599 0.004429465 -0.038803846 0.034040663
-0.022437805 -0.016622195 -0.075898804 0.0034716565 0.08501548 0.055348944 0.0004959797 -0.03363811
0.040000718 0.03565643 0.029074602 -0.029638475 -0.037271023 -0.04335697 0.062478505 0.049385294

weight f4 [84, 120]
00000000: 530a 273e f6a3 0c3e e278 a2bd 986c 983d
00000010: 7629 99bd 0185 113e 64b9 0dbc c115 423d
00000020: b3e9 2c3e 99bf ebbd 8f7d 9dbd 7cbe 08be
00000030: 07c4 aebe f468 983c 1deb 0a3c 2f98 c13c
00000040: 3875 1a3d e370 52bd 8f3e d53d d44f dcbd
00000050: 588c e1bc c5e9 1b3d 5498 c33d 92f4 3fbd
00000060: 5704 92be f8a4 a0bd 83f2 5fbd 86d7 b8bd
00000070: 3384 483c 44c4 7cbe 6fa5 1cbc 43f7 9d3d
00000080: 62b3 88bd 0e7e 2cbc 2056 2e3e 4258 a83d
00000090: 0dc0 06bd 6fb2 acbd da6f e43d 0197 f53d
000000a0: 2d72 13bd a033 90bd 076d 013e 5433 6f3d
000000b0: 4e74 ecbc 3608 11bd 4486 01bc 5759 a0bd
000000c0: b77b 6fbe 0ccd 34bd f868 81bd bf15 b63d
000000d0: 990b c5bd 385a c7bd c7ce 28bd 99c3 8e3d
000000e0: feca bb3d fdc2 4dbc 099f 053e f3c4 83bd
000000f0: 0112 9a3d 6c05 d6bd 955d 733d 5404 95bc
00000100: 3288 bdbd b1c9 853d 3da8 2e3d 2d77 a43d
00000110: d351 55bd 6770 de3d 923a 993d da81 bb3d
00000120: 2e48 12bd 485b 9f3d ea5e c33d 68ce 61bd
00000130: 0044 a6be b29a 54bd 1378 b13d 343b e13c
00000140: 0e2c 22be 8fb2 84bd 3a0b 283e abf8 363d
00000150: fc40 2e3d 47e8 67bd dff1 233d 9191 1d3e
00000160: 698d 07bd df72 b53d 3826 7cbd f37b 1e3e
00000170: 76a9 01bc d12a a13d f20d 443e d103 913d
00000180: b1fa e2bc 7981 7bbc ef3b 4cbd 2b85 6e3c
00000190: 8b89 9f3c a4b7 ef3d 5651 b03d 8f8c 4dbd
000001a0: e75e b73d eb35 7fbd bcd6 acbc 8684 cfbc
000001b0: 6c2e aabb c571 933d 725c c6bd 9de3 1bbe
000001c0: 8266 d63c 313a 4bbd f673 06be de3a 16be
000001d0: 3443 4d3d f27d 26be 090f 3b3d 12ff d8bd
000001e0: 0212 913d 5958 6ebe 76c7 5f3d 4a73 d9bc
000001f0: eed0 0cbd 3397 343d b42a 003e 7171 a33d
00000200: da5e 833d f99b 343e 3226 0ebc 0f07 d6bd
00000210: 0409 803d 5bbc 2c3d cb57 e4bd 706b 3fbe
00000220: a6bf 1abe ddaa a5bd 1a91 973d d8de 6d3d
00000230: 93d9 e0bd 87fe f9bd d787 42bd 4e11 453e
00000240: 6189 803d 6472 7f3e 6219 62bd afb8 be3c
00000250: 6d06 963d ea1b d43d 48e7 ddbd e77c bb3c
00000260: 3a69 7fbe 08b2 eb3c d1ab a43d a262 86bd
00000270: c25f 8a3d 44af ecbd 6b0f 84bd eace 8bbe
00000280: caf4 ad3d e360 f5bb 8942 af3d 36f6 d8bd
00000290: 486e 013e 76df bdbd a1d7 b73b 4a8d ca3d
000002a0: 127d 783e d76e 54be 5545 d0bd bc4d a83c
000002b0: b3ca 823c 2856 7ebd 9a36 ac3d 9e0b 5dbd
000002c0: 752c e83d 7a80 403d 766c d8bd 2259 9a3d
000002d0: bfc3 ab3d 8ebf 983d e0ad 593d a067 0bbd
000002e0: e4d0 213d ccd6 5c3c f450 86be 56c3 b83d
000002f0: 0ce6 623d 165b 8e3d 7f49 f2bb 6a60 173d
00000300: 02c9 9cbd 9305 3bbd 8fbd 5fbd 1689 35bd
00000310: 2680 fbbc 6029 6dbd ea22 c73d c851 813d
00000320: 97f6 0fbe bf5d aa3d 76c5 f43c 5aa7 f6bd
00000330: 12d9 a03d 74e3 dc3d d328 fc3d 756a e9bd
00000340: ed25 e4bc 3bd6 e2bd 3bb3 0f3d 047b cbbd
00000350: 9604 0e3d 539f 28be 2c41 813e 43f5 393e
00000360: 6418 2abc 3608 f1bd e0f0 923d 5fda b8bd
00000370: 0c3e f3bd f37b 34bd 2b9b 413d d43b 4a3c
00000380: 4d1d 193c 629e b2bc f56b 78bd 90af 83bc
00000390: e5d1 293c b679 ddbd a6c4 d03d 3bf0 17be
000003a0: 8395 67be ebc6 953c e2cf eebd c9a3 5a3e
000003b0: 4015 de3d af53 893c d551 a7bd 5848 d03d
000003c0: c009 3abe 72f8 18bd 94d2 b03c c7a8 923d
000003d0: 9d9e 4d3c da07 6cbc 7879 283d 5eba d7bc
000003e0: 1c60 3d3e b3c4 1bbd 8a92 c33d dbcc 013d
000003f0: 4493 663e eaa8 983d 5bf3 283c a27d 083e
0.16312532 0.13734421 -0.07933213 0.074425876 -0.07478611 0.14210893 -0.008650158 0.047384027
0.16886024 -0.11511154 -0.07689964 -0.13353914 -0.34133932 0.018604733 0.008478907 0.023632137
0.037709445 -0.05137719 0.10412323 -0.107574135 -0.027532741 0.038064737 0.09550539 -0.0468641
-0.28518936 -0.07843965 -0.054674637 -0.09025483 0.01223855 -0.24684244 -0.009560927 0.07713177
-0.066748396 -0.010528101 0.17025042 0.08219959 -0.032897998 -0.08432471 0.111541465 0.11991692
-0.03599756 -0.07041097 0.12639247 0.05839856 -0.028864052 -0.03540822 -0.007905547 -0.0782954
-0.23387037 -0.04414086 -0.06318849 0.088908665 -0.09621353 -0.09734005 -0.041212823 0.06970901
0.09169577 -0.012558696 0.13048948 -0.064340495 0.07522965 -0.10450253 0.05941542 -0.01819054
-0.09254493 0.0653261 0.042640913 0.080305435 -0.052079987 0.10861283 0.074818745 0.091556266
-0.035713367 0.077810824 0.09539588 -0.055128485 -0.32473755 -0.05190534 0.086654805 0.02749405
-0.15837118 -0.0647937 0.16410533 0.044670742 0.042542443 -0.056618 0.040025588 0.1538756
-0.033093844 0.088598005 -0.061559886 0.1547697 -0.007913938 0.07869495 0.19145945 0.07080806
-0.02770743 -0.015350693 -0.049861845 0.014558117 0.019474765 0.117049485 0.086092636 -0.050182875
0.08953648 -0.06230728 -0.021098487 -0.025331747 -0.005193522 0.07199434 -0.09685601 -0.15223546
0.026171926 -0.049616043 -0.13130173 -0.14670894 0.050112918 -0.16258982 0.045668636 -0.10595526
0.07083513 -0.2327589 0.05463358 -0.026544232 -0.03437894 0.044089507 0.1251629 0.079806216
0.06414576 0.17637624 -0.008676099 -0.10450565 0.062517196 0.042171817 -0.11149558 -0.18693328
-0.1511217 -0.0808923 0.07400723 0.05807385 -0.10978999 -0.1220675 -0.04749283 0.19244882
0.06276203 0.2494598 -0.05519999 0.023281423 0.07325444 0.10356887 -0.10835129 0.022886707
-0.24942484 0.028771415 0.08040584 -0.065617815 0.067565456 -0.11556867 -0.06448253 -0.273063
0.084939554 -0.0074883564 0.085576124 -0.10593836 0.12639725 -0.092711374 0.0056104218 0.0989023
0.2426646 -0.20745407 -0.10169474 0.02054488 0.015965795 -0.062093884 0.08408852 -0.053966157
0.113366045 0.046997525 -0.10567562 0.07536532 0.08386945 0.07458411 0.053144336 -0.03403437
0.039505854 0.013478946 -0.26233637 0.090216324 0.05539517 0.06950967 -0.0073940153 0.036957182
-0.07655527 -0.045659613 -0.054624137 -0.04432019 -0.030700754 -0.057900786 0.09723456 0.06314427
-0.1405891 0.08318662 0.029879313 -0.120436385 0.07853903 0.10785571 0.12312474 -0.11397258
-0.027850116 -0.110760175 0.035083037 -0.09935573 0.034672342 -0.16467027 0.25245035 0.18159966
-0.010381792 -0.11769144 0.071748495 -0.09026026 -0.11877069 -0.04406352 0.04726712 0.012343366
0.009345365 -0.021804038 -0.06064983 -0.016074926 0.010364984 -0.1081423 0.10193758 -0.14837734
-0.22615628 0.018283328 -0.11660744 0.21351542 0.10843897 0.016763536 -0.08169905 0.101700485
-0.18167782 -0.03734631 0.021584786 0.07161098 0.012550023 -0.014406169 0.041131467 -0.026333984
0.18493694 -0.038029384 0.095494345 0.031689506 0.22517115 0.07454093 0.010311927 0.13329175

bias f4 [84]
00000000: f608 143e bf79 283d 6796 24bd 63e1 16be
00000010: 2b28 6e3d dfe0 0c3e ff7b 22be 96ce 1bbc
00000020: cce4 8d3d f5dc 0cbe ac9f 39bc 39b7 00bc
00000030: 531e b73d 3abd 8e3d 681c cfbd 4440 7a3d
00000040: 43d6 69bd 51a0 813d c307 b93d 7181 273d
00000050: aaab 63bd 8c55 a0bd c87b 4d3d 53c6 88bd
00000060: e6c5 09be 00af 66bb ece1 61bd 60e1 c6bc
00000070: 44d6 c6bd 4ff5 013d ea12 cc3d e25e 263e
00000080: 4ea4 c43d 8d34 3c3d d1c2 2f3e 43d6 5cbc
00000090: 9588 edbc e8a0 68bd 51fd 41bd 4b0e 2a3d
000000a0: 4d25 40be c5d2 013e 53d8 ef3d ff4d d6bd
000000b0: 5168 323d c2f6 b13d 2e05 70bd 80a3 123d
000000c0: 8a6f b13d a64a 92bd 8a66 263c 0c99 ba3c
000000d0: 088e 2bbe b214 1d3e a0c5 04bd 6a42 073e
000000e0: 1ef7 a13d 2ac9 d6bd 4629 7b3b 85eb c03d
000000f0: 3005 5c3d da5f 743d a31b 92bd 6e07 333e
00000100: 1a4e 0c3e 57da 94bc d54c bf3d 16d9 9a3d
00000110: 07ab 87bd 9b64 333d e49b b23c 620d e9bd
00000120: d186 113d b016 d5bd 1f43 3cbd 1c37 e43b
00000130: 252f 423e 3884 2fbe d47d b23d ac24 263d
00000140: 2991 713c f563 5f3c 7293 c5bd b08f 7a3c
0.14456543 0.04113173 -0.040182497 -0.14734416 0.058143776 0.13757657 -0.15867613 -0.009509703
0.06928405 -0.13756163 -0.011329573 -0.007856184 0.08941331 0.06969686 -0.1011284 0.061096445
-0.0570891 0.06329406 0.090346836 0.04089493 -0.055583633 -0.07828817 0.050166875 -0.06678452
-0.13454399 -0.0035199523 -0.055147097 -0.024277389 -0.09708837 0.031728085 0.09964545 0.16247132
0.09601651 0.045948554 0.1716416 -0.013478818 -0.028995791 -0.056794077 -0.047360722 0.041517537
-0.18764229 0.12678058 0.117111824 -0.10464095 0.043556515 0.086896434 -0.05859869 0.035800457
0.086638525 -0.07143144 0.010156283 0.022778057 -0.167534 0.15339926 -0.032415032 0.13208929
0.07908462 -0.10487588 0.0038324161 0.09419922 0.053715885 0.059661724 -0.071341775 0.17483303
0.13701668 -0.018170519 0.093408264 0.07560937 -0.06624418 0.043797117 0.02180285 -0.11379506
0.03552896 -0.10404718 -0.04596245 0.0069645774 0.18963297 -0.17140281 0.08715406 0.040562317
0.014744082 0.013634671 -0.096472636 0.015293047

weight f4 [10, 84]
00000000: 327d 93be a7e0 983b 2f1e 24be fd31 b5be
00000010: da1a 823d cbc3 95bc 5257 dcbd 19f5 4bbe
00000020: 7d1a 1f3e 694e 07be ebec 203d ba6b 4cbe
00000030: a61e ccbc 554b 57be 257a fabd 3b61 96be
00000040: 9e28 94be 8d28 ea3d e697 ccbe 047f a73c
00000050: c611 cdbd e75e dc3d cb08 f8bd 8a32 09be
00000060: f6dc 5a3d a06c 1bbe 5d85 8abc b46b 043d
00000070: 53bd a7be 6fc8 c73d f21f 37be ce96 2abe
00000080: b23e 9ebc 630e 233e ad65 5abd 2b01 533d
00000090: 95f4 f0bc 3502 343e 7c5b 06bd 51de eb3d
000000a0: 3358 87bd 164f 153e 0228 18be 552c 93be
000000b0: 0dad 05bd a854 1cbd 5f46 e63b 4b4c 0a3e
000000c0: d67c 893d e13f 933d d9ea 1e3e aecd a6bc
000000d0: 7b90 c8bd f8db 00bd a1ff 27be 49de a13c
000000e0: 29a9 9b3c 179c ad3d 84c3 0b3e 68ef 0f3e
000000f0: 13ea 033e 205c 91bc a056 253e f4c9 77bd
00000100: cb1f 8bbe b2b0 4ebe 3f39 f7bd 3a45 62be
00000110: 8210 4fbd 8f63 193e 46e9 e0bc 78d2 8f3c
00000120: f169 c73c b824 7f3b eaa3 e1bd bb1b d3bd
00000130: 3c24 fb3d fc82 a3bd 1b32 3a3e 15be ea3d
00000140: bbd0 98bd 5cef 98bd 5f68 dfbc dba2 9e3d
00000150: 3124 7fbe 917f 1c3e c09a 9ebd 205f 97be
00000160: d57c 27be e2c8 a7ba 05b0 c83d 9c95 5cbc
00000170: a68e 48bd 9114 d13d d3d0 4ebb 8790 15be
00000180: f236 a9bd d176 463d 25f2 e53d ab36 783d
00000190: 3c2b 3c3d c8f3 f2bd 0591 683d bc03 78be
000001a0: e33a f9bd 29d6 4ebd d353 7bbe 089a 1a3e
000001b0: 4d50 c6bd 7fc7 29be 7aa9 a33e 9982 dc3b
000001c0: 11a8 05bd 1333 92be 76bb 35bd c079 73bd
000001d0: eda2 34be 79d8 38bd 8e50 a0be 0929 9ebd
000001e0: 809f 013e 4fca f43d 14e2 043c 8e84 6c3d
000001f0: eaa0 32bd 06a2 1c3e 08eb f83d 650a 01be
00000200: 9169 af3b 7860 c8bd ddcb 8dbd 13c5 e33d
00000210: b91d fbbd 7166 29be 926a f73b 1b83 8cbc
00000220: adfc 413d ef0f 1ebd 5406 10be 525c 8dbc
00000230: 1177 3bbe 1151 3abd 7ee3 2d3e 48d6 713c
00000240: 30b6 0dbe 6c80 ce3d 8943 b73d c150 883d
00000250: 72ae 073e d82e 35be d352 84be 853c 533e
00000260: 95da ccbc af25 2bbe 5d29 6c3d 7ff5 89b9
00000270: 1f58 e1bd 97e4 b73d 40eb 083e e39e 5d3e
00000280: 6fc4 e13c 6d56 30be 711f 70be b95b 183e
00000290: 0ca5 833d 61e9 6cbd 7c0b 9fbe 45e6 40be
000002a0: 9cba 763d c4eb ccbd 6c13 3f3d cd91 c93d
000002b0: 8094 9e3c 9a09 24be a2ec 2cbd a58d c2bd
000002c0: ebb8 53be d665 cd3c 331b c83d ad12 61bc
000002d0: 9b03 c83d 5762 df3c 08ea ce3d 1f0c 913d
000002e0: 898e 593d 35fa 5dbe 50f7 abbe 4c34 da3d
000002f0: 62d2 7bbc 878c 6a3e 90ef 07bd 8ca8 2f3d
00000300: 7641 b4bc 449b 97bd 97f2 3fbe 461d 83be
00000310: e796 a53c f794 32bd 2eba 7c3a c84a 543d
00000320: 6f57 41bd 6b77 83bd dbae bbbc 3898 3cbe
00000330: 7e4b 7a3d c96b 5dbc 54ce 343d b56b 823c
00000340: ac0c d8bd d731 9f3d 973c d53d 1edb 69be
00000350: 6888 5abe 2aee eb3d ce8a b33d ff01 65be
00000360: 8be3 f03d d7f4 e23d b9ed c7bb 899c 3d3e
00000370: 0952 8fbd a21d 32bd 9e1b 8ebc 4639 b63d
00000380: 79d6 fabd 88ae 9e3d 30b4 2fbe 866d febc
00000390: cb26 d9bd d166 6cbe 6c4a b33d a78f 5bbe
000003a0: 03be 03bc 72fd 103e a585 d7ba e5df 54be
000003b0: 1e5c 50bc c2ef b73d 5ba9 d2bd 4956 c5bd
000003c0: 63c6 163c 7e38 e5bc 1354 133d ce28 18be
000003d0: 4534 243d 57fc 84bc 3176 59be 7c02 56bd
000003e0: 519d 0fbd 931e ca3d 1483 5c3d ba18 da3d
000003f0: 7110 eebd 6f1d 59bd ff38 ab3d ce66 433d
-0.28806454 0.0046654525 -0.16027139 -0.353897 0.06352778 -0.018281838 -0.107588425 -0.19917716
0.15537448 -0.13213505 0.039288443 -0.1996297 -0.024916958 -0.2102483 -0.122303285 -0.29371056
-0.28937238 0.11433516 -0.3995964 0.020446308 -0.10013156 0.10760289 -0.12111052 -0.13398185
0.05343338 -0.15178156 -0.016909296 0.032329276 -0.3276163 0.097550265 -0.1788328 -0.1665909
-0.019317005 0.15923457 -0.05331962 0.051514786 -0.0294135 0.17578967 -0.03280209 0.11517013
-0.066086195 0.1458095 -0.14859012 -0.2874476 -0.032635737 -0.038166672 0.007027432 0.13505666
0.06713264 0.07189918 0.15519275 -0.020361748 -0.097931825 -0.03145978 -0.16406108 0.019759314
0.01900156 0.084770374 0.13648802 0.1405617 0.12882261 -0.017744124 0.16146326 -0.060495332
-0.27172694 -0.20184591 -0.12071466 -0.2209672 -0.050552852 0.14979385 -0.027454983 0.017556414
0.024342509 0.0038931798 -0.11017592 -0.103080235 0.122627705 -0.07983968 0.18183176 0.114620365
-0.07461687 -0.07467529 -0.027271448 0.07745906 -0.2491615 0.15283038 -0.0774436 -0.29564762
-0.16356213 -0.0012800957 0.09799198 -0.013463404 -0.048964165 0.10209001 -0.0031557574 -0.14605914
-0.08262433 0.048453156 0.11227826 0.06059901 0.04593967 -0.11862904 0.056778926 -0.24220175
-0.12169435 -0.050497208 -0.24543695 0.15097821 -0.09683285 -0.16580008 0.31965238 0.0067294356
-0.032630984 -0.28554592 -0.04436823 -0.05944228 -0.17640276 -0.04512832 -0.31311458 -0.077226706
0.126585 0.1195265 0.008110542 0.0577436 -0.04361049 0.15296182 0.12154204 -0.12601621
0.0053531607 -0.09784025 -0.069236495 0.11121573 -0.122615285 -0.16542985 0.007550546 -0.01715236
0.04736011 -0.038589414 -0.14064914 -0.017255936 -0.18307139 -0.045487467 0.16981313 0.014760561
-0.1383903 0.10083088 0.08948428 0.066560276 0.1325014 -0.1769365 -0.2584444 0.20628555
-0.025006572 -0.16713594 0.057656635 -0.00026313585 -0.11003136 0.08979147 0.13370991 0.21642642
0.027559487 -0.17220469 -0.23449494 0.1487874 0.064279646 -0.057839755 -0.3106345 -0.18837841
0.06023656 -0.10005906 0.04664938 0.098422624 0.01935792 -0.16019288 -0.042217858 -0.09499673
-0.2067601 0.025072973 0.09770813 -0.013737363 0.09766313 0.027268572 0.10103232 0.0708239
0.053114448 -0.21677478 -0.33587122 0.10654506 -0.015369983 0.2290517 -0.03318745 0.04288535
-0.02200387 -0.074026614 -0.18744884 -0.2560827 0.020213557 -0.043599095 0.000964078 0.05182913
-0.047202524 -0.064192615 -0.022910526 -0.18417442 0.06110715 -0.0135144675 0.044142082 0.0159205
-0.10549292 0.07773178 0.10411947 -0.22837493 -0.21341097 0.115200356 0.08766709 -0.22364043
0.117621504 0.11081856 -0.006101337 0.18516745 -0.06998069 -0.04348529 -0.017347153 0.08897643
-0.12247939 0.07748133 -0.1715858 -0.031058084 -0.10603102 -0.23086096 0.08754429 -0.21441518
-0.008040908 0.14159182 -0.0016443027 -0.20788534 -0.012717275 0.08981277 -0.10286208 -0.09635598
0.0092025725 -0.02798104 0.03596885 -0.14859316 0.04008891 -0.016233606 -0.21236493 -0.052248463
-0.035062138 0.09869113 0.053835943 0.106492475 -0.1162423 -0.053006586 0.083604805 0.047705464

bias f4 [10]
00000000: ba79 13bd 27c6 b1bd 87c2 a2bd 3be1 923d
00000010: 7efb 173d 0d24 74bd fe62 96bd c08d ad3b
00000020: 0a7d c53d ba05 433c
-0.03600476 -0.08680373 -0.079472594 0.071718656 0.037105076 -0.059604693 -0.073431 0.005296439
0.0964299 0.011903221
